archived_models/MediaPipeGRU_best.pt (torch, 286469 bytes, 33 tensors)

gru1.weight_ih_l0 f4 [90, 178]
0	0x3e1d1ef3	0.15343837
1	0x3e2c7909	0.16843046
2	0x3d4ffb54	0.050776795
3	0x3e19c567	0.1501671
4	0x3c8ab2a2	0.016930882
5	0x3df733e6	0.12070446
6	0x3d1e223d	0.03860687
7	0xbcc8e632	-0.024523828
8	0xbc66320d	-0.014050019
9	0xbc9d432e	-0.019197073
10	0x3d9fb5f3	0.07798376
11	0x3d56a264	0.05240096
12	0x3e0ebe54	0.13939792
13	0x3dae028f	0.08496582
14	0x3c86e9cb	0.016468903
15	0x3d184796	0.037177645
16	0x3df3cfa2	0.11904837
17	0xbc010071	-0.00787364
18	0x3e2baf89	0.1676618
19	0x3d3cb9a1	0.046075467
20	0x3d938ca4	0.072045594
21	0x3e289d8d	0.16466351
22	0xbd8adcc3	-0.06780388
23	0x3e06c7b8	0.13162124
24	0x3e0bb8b0	0.13644671
25	0x3e1c00cc	0.15234679
26	0x3db70f48	0.089384615
27	0x3bb2b0cb	0.0054532043
28	0xbd55b261	-0.05217207
29	0x3e0abd29	0.13548721
30	0x3da72018	0.08160418
31	0x3e187b2b	0.14890735
32	0x3dceaa1c	0.100910395
33	0xbcfb2848	-0.030658856
34	0x3e0d6240	0.1380701
35	0x3d6a2a9f	0.057169553
36	0xbd94ba57	-0.07262104
37	0x3d4a214e	0.049348168
38	0xbbbd1f39	-0.0057715443
39	0xbad7ae99	-0.0016455232
40	0xbb621b26	-0.0034501045
41	0xbda3ffe3	-0.08007791
42	0xbce7efef	-0.028312651
43	0x3e1ef7f0	0.15524268
44	0xbcd56f83	-0.02605415
45	0x3c860d4a	0.016363759
46	0x3cf6e714	0.030139484
47	0x3e1b6aeb	0.15177505
48	0x3dd91913	0.10600486
49	0xbbfbc9bc	-0.0076839607
50	0x3c862d3d	0.016378993
51	0x3b3d5dde	0.002889506
52	0x3c735aaa	0.014853159
53	0x3ae68402	0.0017586949
54	0x3c37d327	0.011219776
55	0x3b2ff91c	0.0026851362
56	0x3c1b8c38	0.00949388
57	0x3b02793c	0.0019908687
58	0x3c56da6a	0.013113597
59	0x3b1071a2	0.0022040387
60	0x3c18b35b	0.009320105
61	0x3b099b3a	0.0020997063
62	0x3c186083	0.009300354
63	0x3c0ec65c	0.008714285
64	0x3c062854	0.008188326
65	0x3bb086d0	0.0053871647
66	0x3c368a15	0.01114132
67	0x39bb7415	0.00035753907
68	0x3c5f1e85	0.013618116
69	0x3c0410fe	0.008060692
70	0x3c77d619	0.015126728
71	0x3c05a3e1	0.008156748
72	0x3c2cbd75	0.010543217
73	0x3c29c24c	0.010361265
74	0x3c270cb5	0.010195901
75	0x3b3adeb7	0.0028514096
76	0x3c748afd	0.0149257155
77	0x3b1a1490	0.0023510791
78	0x3c7f5270	0.0155836195
79	0x3c02d4c4	0.007985298
80	0x3c619792	0.013769047
81	0x3bc76f77	0.0060862857
82	0x3c0fbe6d	0.008773428
83	0x3b9fd974	0.0048782174
84	0x3c7729a2	0.01508561
85	0x3c2f7dd7	0.010711155
86	0x3c766b77	0.01504027
87	0x3bfb288f	0.007664747
88	0x3c6402ae	0.0139166545
89	0x3c1258be	0.008932291
90	0x3c55838f	0.013031854
91	0x3c1491f6	0.009068003
92	0x3dc8042b	0.0976642
93	0xbcdb4aae	-0.026769008
94	0xbbed44c1	-0.007240862
95	0xbc6e249c	-0.014535096
96	0xbc27c47b	-0.010239716
97	0x3dcdfa0e	0.1005746
98	0x3dc4b227	0.09604292
99	0x3d850c2b	0.064964615
100	0x3d1d9d21	0.038479928
101	0xbc35901b	-0.011081721
102	0xbc85fee7	-0.016356898
103	0x3d8f9192	0.07010187
104	0x3d77febe	0.060545675
105	0x3d99a3ea	0.07501967
106	0x3d3225c7	0.04349306
107	0x3d791f98	0.060821146
108	0x3d965724	0.073408395
109	0x3b28d2a3	0.0025760315
110	0x3dda3cc5	0.10656122
111	0x3d22b2bd	0.03972124
112	0x3d1125e5	0.03543653
113	0xbc6b453e	-0.01435977
114	0x3dc43db9	0.09582085
115	0x3dd635f2	0.10459508
116	0x3d8631e1	0.065524824
117	0xbcd1186f	-0.025524346
118	0x3b4d304c	0.0031309305
119	0xbd3078f3	-0.043084096
120	0x3cdc7776	0.026912432
121	0x3d9422aa	0.07233174
122	0x3af33557	0.0018555325
123	0xbca3e837	-0.02000819
124	0x3c18802f	0.009307905
125	0x3cf7f57b	0.030268421
126	0x3d91f1a6	0.07126169
127	0xbce4b619	-0.027918862
128	0xbbce4f17	-0.0062960493
129	0x3d84f069	0.06491167
130	0x3db3a409	0.087715216
131	0x3da0cc4e	0.07851468
132	0x3ce2730d	0.027642751
133	0x3c3677b6	0.01113694
134	0xbcb869fd	-0.022511477
135	0x3dbb4e40	0.091457844
136	0x3e106852	0.14102295
137	0x3d420477	0.04736754
138	0xbd070077	-0.032959428
139	0x3e2e4c76	0.17021355
140	0x3dc5b062	0.09652783
141	0x3dc581df	0.096439116
142	0x3e1e21ef	0.15442632
143	0x3ca59ef4	0.020217396
144	0x3d2df4be	0.042469732
145	0x3da3d1a3	0.079989694
146	0x3e133b5d	0.14378114
147	0x3ddfb083	0.10922339
148	0x3d080793	0.03321035
149	0x3e157c3c	0.14598173
150	0x3d4de2cb	0.050265115
151	0x3b97ddb5	0.004634584
152	0x3d51e5e1	0.05124462
153	0x3e2e5c67	0.17027436
154	0xbd7ba610	-0.061437666
155	0x3e20a71d	0.15688749
156	0xbd3dbbb6	-0.046321593
157	0xbc9196a0	-0.017772019
158	0xbd76a7cb	-0.060218614
159	0x3e064bc0	0.13114834
160	0x3d8b5ca4	0.06804779
161	0xbcbf64ca	-0.02336349
162	0x3a9d32a7	0.0011993245
163	0x3e0aa7f6	0.13540635
164	0x3e26b74c	0.1628086
165	0x3d7c095c	0.061532363
166	0x3d9f39ee	0.07774721
167	0x3c69812f	0.014251991
168	0x3dc4c351	0.09607566
169	0x3db34211	0.087528355
170	0xbd6ca44c	-0.057773873
171	0x3e252050	0.16125607
172	0x3e0d835c	0.13819641
173	0x3e1668d5	0.14688428
174	0x3d896429	0.06708557
175	0x3ce4bcf9	0.02792214
176	0x3e0f5587	0.1399747
177	0xbceb6e54	-0.028739132
178	0xbd8ba458	-0.068184555
179	0x3c8f6a3a	0.017506707
180	0x3d260ad9	0.04053769
181	0x3cf8ae08	0.030356422
182	0x3c9c0a63	0.019047922
183	0x3cfa168e	0.030528333
184	0xbb6ef61d	-0.0036462613
185	0xbd1283de	-0.03577029
186	0xbd8d1590	-0.06888878
187	0xbba77d21	-0.005111352
188	0x3d50bc0b	0.05096058
189	0xbcc58c99	-0.024114894
190	0xbce5a59e	-0.028033074
191	0xbb3f5f06	-0.0029200925
192	0x3db59ac8	0.08867413
193	0x3d6b9495	0.057514746
194	0xbcee7a4d	-0.029111052
195	0x3bd13b30	0.0063852295
196	0xbd9fa5ce	-0.077952966
197	0x3d0b4bbb	0.03400777
198	0xbcfab682	-0.030604605
199	0x3d3ffde3	0.046872985
200	0x3cfd8299	0.030946063
201	0x3cab9d64	0.020949073
202	0x3c704768	0.014665462
203	0x3d9cb379	0.07651419
204	0x3c58c13d	0.013229665
205	0x3d8ee6f2	0.06977643
206	0x3d3a9afd	0.045557965
207	0x3c8d9302	0.017282013
208	0x3ada3f3b	0.0016650924
209	0xbd99ddb4	-0.0751299
210	0x3cde6989	0.027149932
211	0xbdae8ce8	-0.085229695
212	0xbbaa2a2f	-0.005193017
213	0xbd4ed0a2	-0.050491937
214	0x3dd5e7c3	0.10444596
215	0xbd848d19	-0.06472225
216	0xbd530e0a	-0.05152706
217	0x3d67b910	0.056572974
218	0xbd0d54c7	-0.034504678
219	0xbc9b5ebf	-0.018966077
220	0xbd3125a4	-0.043248788
221	0x3ca2870b	0.019839784
222	0x3da70535	0.0815529
223	0x3def9dec	0.11700043
224	0x3b8281e6	0.0039827703
225	0xbd87b79f	-0.0662682
226	0x3c841e7f	0.016127823
227	0x3d13700b	0.035995524
228	0xbcdb8e18	-0.026801154
229	0x3c06e8e4	0.008234236
230	0xbd0b0ae9	-0.03394595
231	0x3c55725f	0.0130277565
232	0xbd261269	-0.0405449
233	0x3b84de00	0.004054785
234	0xbd0f212c	-0.034943745
235	0xbc873969	-0.016506867
236	0xbc68026e	-0.0141607355
237	0x3c24ecac	0.010066193
238	0xbccb1264	-0.024789043
239	0xbbb35214	-0.005472431
240	0xbd07d6a5	-0.033163685
241	0xbc8723c4	-0.016496547
242	0xbccd126d	-0.0250332
243	0xbbfe2dcc	-0.0077569243
244	0xbc1a07b6	-0.0094012525
245	0xbb7849a6	-0.0037885695
246	0xbd05018f	-0.03247219
247	0x3b3987e6	0.0028309762
248	0xbd135d44	-0.035977617
249	0xbb2c4b65	-0.0026290056
250	0xbc90f500	-0.01769495
251	0xbc07d03b	-0.008289392
252	0xbca97f93	-0.020690715
253	0xbc7979db	-0.0152268065
254	0xbc861321	-0.016366543
255	0x3c1e33c9	0.009655901

gru1.weight_hh_l0 f4 [90, 30]
0	0xbc21e428	-0.009881057
1	0x3d3550ec	0.044266626
2	0x3ba0eaa6	0.004910785
3	0x3df16165	0.11786155
4	0x3d979d68	0.0740307
5	0x3db2f09e	0.087373
6	0x3e1cc9a8	0.15311301
7	0x3e15a632	0.1461418
8	0xbda4ad12	-0.08040823
9	0x3d9f2d7a	0.07772346
10	0xbcc89a54	-0.024487652
11	0x3e777d7c	0.24168962
12	0x3d22bdfe	0.039731972
13	0xbe1e1039	-0.15435876
14	0x3c804000	0.015655518
15	0xbd9aebc3	-0.07564499
16	0xbd9f18bd	-0.0776839
17	0x3dbb6a01	0.09151078
18	0x3deee296	0.116643116
19	0xbd89e3ec	-0.06732926
20	0x3b608c80	0.0034263432
21	0xbdf51009	-0.11965949
22	0x3db74c06	0.08950047
23	0x3ca5c258	0.020234272
24	0xbe05c15e	-0.13062045
25	0x3e1b29d8	0.15152681
26	0x3e04be2f	0.12963174
27	0xbb42527f	-0.0029651222
28	0x3d8ad056	0.06778018
29	0xbcd086e4	-0.025454946
30	0xbda2bd22	-0.079462305
31	0x3da7bd8f	0.08190452
32	0x3cb110db	0.021614483
33	0xbb1868a7	-0.0023255737
34	0xbdec43c1	-0.115363605
35	0x3d8d8ff8	0.069122255
36	0x3db5df01	0.08880425
37	0x3c7fb920	0.015608102
38	0x3ca041e8	0.019562677
39	0x3c6b951b	0.014378811
40	0xbdd47c8c	-0.10375318
41	0xbd6bcc36	-0.057567798
42	0x3c8a5c67	0.016889764
43	0x3d31640a	0.043308295
44	0x3d9d6d4f	0.076868646
45	0xbe0edaed	-0.13950701
46	0x3d9a4cc0	0.0753417
47	0x3dc73e84	0.09728721
48	0xbd00950d	-0.031392146
49	0xbd382e51	-0.044966046
50	0xbd3f47ed	-0.046699453
51	0xbdb1c705	-0.08680538
52	0x3d08a932	0.033364482
53	0x3d36182a	0.04445664
54	0xbc174d53	-0.009234744
55	0xbe0ae194	-0.13562614
56	0x3d311d54	0.04324086
57	0x3d5aeb50	0.053447068
58	0xbd010d88	-0.031507045
59	0xbd8a22f3	-0.06744947
60	0xbe4c1839	-0.19931115
61	0x3dbe58d3	0.092942856
62	0x3e0653fe	0.13117978
63	0xbcdc84af	-0.026918737
64	0xbe1d1b35	-0.1534241
65	0xbdfcfc96	-0.123528644
66	0xbce361f0	-0.027756661
67	0xbbf0e648	-0.0073516704
68	0xbe06586d	-0.1311967
69	0x3d028ca1	0.031872395
70	0xbe8b489c	-0.27203834
71	0xbcb186c8	-0.021670714
72	0x3dffd8bd	0.124925114
73	0xbdc9038f	-0.09815132
74	0x3ca2c474	0.019869067
75	0xbc9bbc85	-0.019010792
76	0x3d664949	0.056222234
77	0xbd889dcf	-0.066707246
78	0xbda1e87a	-0.079056695
79	0xbd1c1908	-0.03810981
80	0xbbe69abd	-0.007037489
81	0x3e0e54f4	0.13899595
82	0xbce78c39	-0.028265106
83	0x3ddfc1ac	0.10925612
84	0x3c65aa10	0.014017597
85	0x3d969f06	0.0735455
86	0xbdf35719	-0.11881847
87	0x3de733ca	0.11289175
88	0xbd139888	-0.036034137
89	0x3dd81e4c	0.10552654
90	0xba317170	-0.00067689177
91	0xbca4a223	-0.020096844
92	0x3bd28507	0.0064245495
93	0x3e183d1f	0.14867066
94	0xbd06bb41	-0.032893423
95	0xbe0e78d0	-0.13913274
96	0xbd907a40	-0.07054567
97	0x3e197207	0.14984904
98	0xbe7262c3	-0.23670487
99	0xbd2293d2	-0.039691754
100	0x3e5c601b	0.21521036
101	0x3e516598	0.20448911
102	0x3c8065cd	0.015673542
103	0xbe074b99	-0.13212432
104	0xbde1261e	-0.109935984
105	0xbdd5bfac	-0.10436949
106	0xbd649f96	-0.055816256
107	0xbdfef1a4	-0.12448433
108	0x3dc8dd66	0.098078534
109	0xbd7e4f94	-0.06208761
110	0xbe01768c	-0.12642878
111	0x3e3e2506	0.18568811
112	0xbccb2b1f	-0.024800835
113	0xbe956d8d	-0.29185143
114	0xbd2d8da8	-0.042371422
115	0xbd404f99	-0.04695091
116	0xbcccb375	-0.024987916
117	0x3d63ad06	0.05558493
118	0x3dee758b	0.11643513
119	0xbe114489	-0.141863
120	0x3d97872d	0.073988296
121	0x3d1bab1c	0.03800498
122	0xbd9c3be5	-0.076286115
123	0xbbe47130	-0.006971501
124	0xbd8f4d1d	-0.0699713
125	0x3d61b233	0.055101585
126	0x3d3e63a7	0.046481755
127	0xbdb9f9fe	-0.09080885
128	0x3b51707c	0.0031957915
129	0x3e0ce36f	0.13758634
130	0x3cd088ad	0.025455797
131	0x3d2cbcdd	0.0421723
132	0x3cc0817f	0.023499249
133	0xbded1a08	-0.11577231
134	0x3d9249fd	0.071430184
135	0xbda831f7	-0.08212655
136	0x3c5ed641	0.013600887
137	0xbd002c3c	-0.031292185
138	0xbb144f68	-0.0022630338
139	0xbe09e388	-0.13465703
140	0x3d7902f7	0.060793843
141	0x3c829118	0.015938327
142	0xbbf6c52e	-0.00753083
143	0xbd6e5e62	-0.05819548
144	0xbdd33293	-0.10312381
145	0xbab816d7	-0.0014044893
146	0x3e634f64	0.22198254
147	0xbd876bf0	-0.06612384
148	0xbe42c9a6	-0.19022235
149	0xbdbbff36	-0.09179537
150	0xbd08c60e	-0.033392005
151	0xbd5943e3	-0.053043257
152	0xbd850dac	-0.06496748
153	0x3df2cd5d	0.11855576
154	0x3d010a9f	0.03150427
155	0x3d10b5a6	0.035329483
156	0x3d372c36	0.044719897
157	0xbd70a954	-0.058755234
158	0xbdd2446a	-0.10266955
159	0x3d283a63	0.041071307
160	0xbc5804df	-0.013184755
161	0xbdcaa506	-0.09894757
162	0x3cb95f82	0.02262855
163	0xbd1902c6	-0.03735616
164	0xbe1ef1b8	-0.15521896
165	0x3d885f19	0.066587634
166	0xbc65a767	-0.014016963
167	0x3c3c3fe3	0.011489841
168	0x3de7b75f	0.11314272
169	0x3db93752	0.09043755
170	0xbcf015f8	-0.02930735
171	0xbb9d92b5	-0.0048087486
172	0xbdbf3a6f	-0.09337317
173	0x3d6bc42b	0.057560127
174	0xbd0f79c5	-0.035028238
175	0x3e0fbed8	0.14037645
176	0x3d15cb72	0.036570974
177	0x3c432c92	0.011912482
178	0xbd0d4297	-0.034487333
179	0xbd52d780	-0.051475048
180	0xbd929912	-0.07158102
181	0xbe15b21b	-0.14618723
182	0xbe16fdf4	-0.14745313
183	0x3d36443d	0.04449867
184	0x398ba339	0.00026633756
185	0x3c1785a5	0.009248172
186	0xbd36d022	-0.044632085
187	0x3df3c8ee	0.11903559
188	0xbe1ae2ba	-0.15125552
189	0x3da2c979	0.07948584
190	0xbe1f8ab7	-0.1558026
191	0xbd4680df	-0.048462745
192	0x3dc9f54d	0.098612405
193	0xbd34bfa3	-0.04412807
194	0xbe2e5669	-0.1702515
195	0xbca6cb10	-0.0203605
196	0xbe93f61c	-0.28898704
197	0x3c21e317	0.009880803
198	0x3e2d2842	0.16909888
199	0xbd7af734	-0.061270908
200	0x3d3ce49a	0.04611645
201	0xbdf0c98a	-0.117571905
202	0x3e41dec6	0.18932638
203	0x3e044cde	0.12919948
204	0x3e82d7ac	0.2555517
205	0x3cbcecfa	0.023062218
206	0x3da09436	0.07840769
207	0x3e0f785c	0.14010757
208	0xbd3adf90	-0.045623362
209	0xbb537b93	-0.00322697
210	0x3e16bdd1	0.14720847
211	0x3d35f771	0.04442543
212	0xbe2c44bb	-0.16823094
213	0x3dee53f3	0.11637106
214	0x3d4e191e	0.050316922
215	0x3e7a4732	0.24441221
216	0x3ce5a490	0.028032571
217	0xbbb66a98	-0.005566906
218	0x3d60fb60	0.05492723
219	0xbd6e88aa	-0.0582358
220	0x3debb2f3	0.11508741
221	0x3d2ab969	0.041680727
222	0x3ccde363	0.02513284
223	0xbdfcb687	-0.12339502
224	0x3d994841	0.074844845
225	0xbdb7b55a	-0.08970137
226	0x39a4a1e3	0.00031401133
227	0xbc9e1df8	-0.0193014
228	0x3e16233d	0.1466188
229	0x3a317f9b	0.0006771029
230	0x3d132ab1	0.035929386
231	0x3e0f85a0	0.14015818
232	0xbd8c7a59	-0.068592735
233	0xbdb9755b	-0.09055587
234	0xbdd39f70	-0.10333145
235	0xbc444b59	-0.011980855
236	0xbda5552a	-0.080728844
237	0xbd9b0af6	-0.0757045
238	0xbdca37b7	-0.09873908
239	0xbdf2b3aa	-0.118506745
240	0xbdbc7aa9	-0.09203083
241	0xbdc31660	-0.09525752
242	0xbd0e4b71	-0.034739915
243	0x3d4f45d9	0.05060372
244	0xbdfb021c	-0.12256262
245	0x3e15c7a8	0.14626944
246	0x3e1a3692	0.1505988
247	0x3de24959	0.11049146
248	0xbe32b47d	-0.17451663
249	0x3d974d3a	0.07387777
250	0xbdaa3258	-0.083103836
251	0x3df96fa2	0.121794954
252	0x3e2b0402	0.16700748
253	0x3c57ff2b	0.013183395
254	0xbdbb62c8	-0.091497004
255	0x3cf7d08d	0.030250812

gru1.bias_ih_l0 f4 [90]
0	0x3e24be79	0.16088285
1	0x3ac5f78e	0.0015103684
2	0x3d901c8b	0.07036694
3	0x3d54be01	0.051939014
4	0x3de29c6b	0.110649906
5	0x3cb1e234	0.021714307
6	0x3cbcd6f1	0.02305171
7	0x3dee287f	0.11628818
8	0x3dff30d9	0.12460489
9	0xbc5a2230	-0.013313815
10	0x3db3bc62	0.087761655
11	0x3dfcf64e	0.123516664
12	0x3e6992f8	0.2280997
13	0x3d1a5eab	0.03768794
14	0x3d27d46f	0.040974077
15	0x3d6b7cf6	0.05749222
16	0x3dd90dc2	0.10598327
17	0x3db7781d	0.08958457
18	0x3db543bd	0.08850811
19	0x3d5ac1a4	0.053407326
20	0x3e28f15a	0.16498318
21	0x3d535d49	0.051602636
22	0x3dbe4641	0.092907436
23	0x3c870b4d	0.01648488
24	0x3e0dd02a	0.1384894
25	0x3c7d7c1f	0.015471487
26	0x3d04fb87	0.032466438
27	0x3dfdc861	0.12391735
28	0x3d9fd277	0.07803815
29	0x3d932027	0.07183867
30	0x3d78eeb3	0.060774516
31	0x3d388f56	0.04505857
32	0x3c75b15c	0.014995899
33	0x3db800c6	0.089845225
34	0x3d01fb6b	0.03173391
35	0x3d553240	0.052049875
36	0x3d12527e	0.035723202
37	0x3d897b56	0.067129776
38	0x3d8aa74b	0.0677019
39	0x3d0da5ca	0.034581937
40	0x3e02f17b	0.1278743
41	0x3dd42989	0.10359485
42	0x3dfe998c	0.124316305
43	0x3cc30f0d	0.023810888
44	0x3bd3d66c	0.00646477
45	0x3c30515f	0.010761588
46	0x3c86da43	0.016461497
47	0x3d0bda2b	0.034143608
48	0x3d4aabba	0.049480177
49	0x3d5dcd54	0.054150894
50	0x3ca01398	0.019540593
51	0x3d40aaa6	0.047037743
52	0x3d1485e9	0.03626052
53	0x3d1e5430	0.038654506
54	0x3c631985	0.013861065
55	0x3c9da02e	0.019241419
56	0x3dc8fc35	0.0981373
57	0x3df6f521	0.120584734
58	0x3d9b62ea	0.07587226
59	0x3c8087a3	0.015689677
60	0xbbdd661a	-0.006756556
61	0xbb120891	-0.0022282938
62	0xbb1dbf47	-0.002407031
63	0x3c1ca1c6	0.009560054
64	0xbbca04d2	-0.0061651254
65	0x3c89e82a	0.016834337
66	0xbb8784c3	-0.0041356995
67	0xb94d2617	-0.00019564513
68	0xbb35fe02	-0.0027769809
69	0x3cae6db5	0.021292547
70	0x3c2afe42	0.010436596
71	0xbce23e57	-0.027617617
72	0x3d0d499a	0.03449402
73	0xbc7ff37a	-0.015622014
74	0xbc0b8bde	-0.008517234
75	0xbb679044	-0.0035333792
76	0xb9f7eb4e	-0.00047286827
77	0xbbde6d26	-0.006787914
78	0x3c044edf	0.008075445
79	0x3b3a0056	0.0028381548
80	0x3b3e060b	0.00289953
81	0xbaa465d2	-0.0012542552
82	0x3ba6bfbe	0.0050887754
83	0x3bf72cc3	0.007543178
84	0xbb76a04b	-0.0037632163
85	0xbc16de57	-0.009208283
86	0x3c71ea6c	0.014765363
87	0x3c5c9fdd	0.013465849
88	0xbc513dd2	-0.012771087
89	0xbb0a7945	-0.0021129411

gru1.bias_hh_l0 f4 [90]
0	0x3e24be79	0.16088285
1	0x3ac5f78e	0.0015103684
2	0x3d901c8b	0.07036694
3	0x3d54be01	0.051939014
4	0x3de29c6b	0.110649906
5	0x3cb1e234	0.021714307
6	0x3cbcd6f1	0.02305171
7	0x3dee287f	0.11628818
8	0x3dff30d9	0.12460489
9	0xbc5a2230	-0.013313815
10	0x3db3bc62	0.087761655
11	0x3dfcf64e	0.123516664
12	0x3e6992f8	0.2280997
13	0x3d1a5eab	0.03768794
14	0x3d27d46f	0.040974077
15	0x3d6b7cf6	0.05749222
16	0x3dd90dc2	0.10598327
17	0x3db7781d	0.08958457
18	0x3db543bd	0.08850811
19	0x3d5ac1a4	0.053407326
20	0x3e28f15a	0.16498318
21	0x3d535d49	0.051602636
22	0x3dbe4641	0.092907436
23	0x3c870b4d	0.01648488
24	0x3e0dd02a	0.1384894
25	0x3c7d7c1f	0.015471487
26	0x3d04fb87	0.032466438
27	0x3dfdc861	0.12391735
28	0x3d9fd277	0.07803815
29	0x3d932027	0.07183867
30	0x3d78eeb3	0.060774516
31	0x3d388f56	0.04505857
32	0x3c75b15c	0.014995899
33	0x3db800c6	0.089845225
34	0x3d01fb6b	0.03173391
35	0x3d553240	0.052049875
36	0x3d12527e	0.035723202
37	0x3d897b56	0.067129776
38	0x3d8aa74b	0.0677019
39	0x3d0da5ca	0.034581937
40	0x3e02f17b	0.1278743
41	0x3dd42989	0.10359485
42	0x3dfe998c	0.124316305
43	0x3cc30f0d	0.023810888
44	0x3bd3d66c	0.00646477
45	0x3c30515f	0.010761588
46	0x3c86da43	0.016461497
47	0x3d0bda2b	0.034143608
48	0x3d4aabba	0.049480177
49	0x3d5dcd54	0.054150894
50	0x3ca01398	0.019540593
51	0x3d40aaa6	0.047037743
52	0x3d1485e9	0.03626052
53	0x3d1e5430	0.038654506
54	0x3c631985	0.013861065
55	0x3c9da02e	0.019241419
56	0x3dc8fc35	0.0981373
57	0x3df6f521	0.120584734
58	0x3d9b62ea	0.07587226
59	0x3c8087a3	0.015689677
60	0x3b8689d1	0.0041057845
61	0x3cdda4f3	0.027056193
62	0xbb411061	-0.0029459225
63	0x3cc90367	0.024537755
64	0xbb2b2a59	-0.002611777
65	0x3c9c944e	0.019113686
66	0xbb989ca9	-0.004657347
67	0xbc0f18d9	-0.0087339515
68	0x3b1405a4	0.002258637
69	0x3d2375ed	0.039907385
70	0x3c04cfb1	0.008106158
71	0xbc94eed8	-0.018180296
72	0x3cc14378	0.023591742
73	0xbbc1405a	-0.005897564
74	0xbc12a2a9	-0.008949914
75	0xba9a827b	-0.0011788154
76	0x3bc6b092	0.0060635293
77	0xbaf08357	-0.0018349689
78	0x3c0e0381	0.008667828
79	0x3bf75c85	0.007548871
80	0x3ba331a3	0.0049802824
81	0xbadbf8f6	-0.001678257
82	0x3b929ac6	0.004474017
83	0x3b2a8867	0.0026021244
84	0xbc2cdfef	-0.010551437
85	0x3c34494b	0.0110038025
86	0x3ce076ce	0.0274004
87	0x3c9309e1	0.017949047
88	0xbbf7b4cb	-0.007559394
89	0xbc01fe39	-0.007934147

gru2.weight_ih_l0 f4 [66, 30]
0	0x3d9e79a7	0.07738047
1	0xbda78287	-0.08179193
2	0x3d8b9f37	0.06817477
3	0xbda7a1ca	-0.08185156
4	0xbd893064	-0.06698683
5	0x3df7b3f3	0.120948695
6	0xbdbb067b	-0.091320954
7	0x3c8cd5ab	0.017191729
8	0xbe4231c4	-0.18964297
9	0x3d332c80	0.04374361
10	0xbe54baa7	-0.20774327
11	0x3e02d85c	0.12777847
12	0x3e938255	0.28810373
13	0x3deb090d	0.11476336
14	0xbc35c69f	-0.011094718
15	0x3e62d857	0.2215284
16	0x3e3a0c1f	0.18168686
17	0x3e369d94	0.17833549
18	0x3d35b0e1	0.044358138
19	0x3c7f740b	0.015591632
20	0x3dd580e6	0.10424976
21	0x3d3486a9	0.044073734
22	0x3d1a92ee	0.03773778
23	0x3e184bbc	0.1487264
24	0xbdda3d98	-0.10656279
25	0x3dd83557	0.10557049
26	0x3e102711	0.14077403
27	0xbde8734a	-0.11350115
28	0x3d2623a7	0.040561344
29	0xbde175b6	-0.1100878
30	0x3e5b230c	0.21400088
31	0xbd935fd2	-0.07196011
32	0x3db492bd	0.088170506
33	0x3e5e05e9	0.21681942
34	0x3e5bc68b	0.21462457
35	0x3e399969	0.18124928
36	0x3d1abde6	0.037778758
37	0x3d54d5a3	0.051961552
38	0xbc0ab0ee	-0.008465035
39	0x3e827ca7	0.25485727
40	0xbe643158	-0.22284448
41	0x3e0caccd	0.13737793
42	0x3eb409c4	0.351637
43	0xbe460ca9	-0.19340767
44	0x3d5524af	0.052036937
45	0x3dc080ce	0.093995675
46	0xbe3f881a	-0.18704262
47	0xbde96ecf	-0.11398088
48	0xbdb99eda	-0.09063502
49	0xbe140b28	-0.14457381
50	0x3e9eda91	0.31026128
51	0x3e8639a6	0.26215857
52	0xbe6c9b86	-0.23106202
53	0xbe3690de	-0.178287
54	0xbcb4f26f	-0.022088258
55	0x3ddef088	0.108857214
56	0xbc79e654	-0.015252668
57	0x3e4f04e6	0.20216712
58	0x3cc18846	0.02362455
59	0xbbaa618b	-0.0051996163
60	0xbe6a5e7c	-0.22887605
61	0xbd8475fe	-0.06467818
62	0xbd8b6a45	-0.06807379
63	0x3d4b9d01	0.049710277
64	0xbc0579a7	-0.00814668
65	0x3c903d37	0.017607315
66	0x3e186c60	0.14885092
67	0x3d618220	0.055055737
68	0x3bb3b3b8	0.0054840706
69	0x3d636ad2	0.055521794
70	0xbe856831	-0.26056054
71	0xbe515d8c	-0.20445842
72	0x3e411559	0.188558
73	0xbd83ca53	-0.06435075
74	0xbd83ec46	-0.0644155
75	0xbd624956	-0.05524572
76	0x3df35a98	0.11882514
77	0x3ba57112	0.0050488794
78	0x3d262c97	0.040569868
79	0xbe14b1b0	-0.14520907
80	0x3d02c5b5	0.03192683
81	0xbe0086bf	-0.12551402
82	0x3ca7d333	0.02048645
83	0xbcc3dcbb	-0.023908963
84	0x3e8f43a3	0.2798129
85	0xbd4e07d0	-0.05030042
86	0x3e0821ae	0.13294098
87	0x3c92eea4	0.017936058
88	0xbda60de8	-0.08108121
89	0xbd04ce73	-0.032423448
90	0x3cd7bbfb	0.026334753
91	0x3e2dfa72	0.16990069
92	0x3dc6e14e	0.09710942
93	0x3daa5b0a	0.083181456
94	0x3dbbae7c	0.0916414
95	0x3df43af2	0.119253054
96	0x3e2b37a0	0.16720438
97	0xbb9dd883	-0.00481707
98	0xbed00a47	-0.4063284
99	0x3e3b2e80	0.18279457
100	0xbe607534	-0.2191971
101	0xbe578160	-0.21045446
102	0xbd461296	-0.04835757
103	0xbe8344f9	-0.2563856
104	0xbe1fd497	-0.1560844
105	0x3daab4e9	0.08335287
106	0xbe621b48	-0.2208072
107	0x3e0eccc2	0.13945296
108	0x3e2a5146	0.16632566
109	0x3dcc05a4	0.09962013
110	0x3dd383b1	0.103278525
111	0xbdd41057	-0.10354679
112	0xbd025df7	-0.031827893
113	0xbc07f7e3	-0.008298847
114	0x3e9b5a21	0.303422
115	0x3c566e26	0.013087785
116	0x3919eb62	0.00014678904
117	0xbde870c5	-0.11349634
118	0x3e3d0b70	0.18461394
119	0x3da67749	0.081282206
120	0x3d66fa31	0.056390945
121	0x3e612e84	0.219904
122	0x3e91947c	0.28433597
123	0xbe956a4c	-0.2918266
124	0x3d19554f	0.037434872
125	0xbe723d2e	-0.2365615
126	0xbe37bad5	-0.17942365
127	0xbdefb892	-0.11705126
128	0x3eb1b4d0	0.3470826
129	0xbdfb84aa	-0.12281163
130	0x3dba7ca6	0.09105806
131	0x3dcd8d99	0.10036773
132	0x3de9882d	0.114029266
133	0x3e14d6f1	0.14535119
134	0x3ee903f8	0.4551084
135	0x3e0fb06a	0.1403214
136	0xbc1c302f	-0.009532972
137	0x3d998508	0.07496077
138	0xbe274e39	-0.16338433
139	0xbeae56a5	-0.3405048
140	0xbe06fd85	-0.13182648
141	0xbdfec393	-0.124396466
142	0xbc2ebeee	-0.010665638
143	0xbd6ef264	-0.05833663
144	0xbea8c2d9	-0.32961157
145	0xbe302e72	-0.17205217
146	0x3df77777	0.12083333
147	0xbcdef87f	-0.027218102
148	0xbdc32615	-0.09528748
149	0x3e00077e	0.12502858
150	0x3d5c0802	0.053718574
151	0x3dcde329	0.10053093
152	0xbe3ca3d5	-0.18421872
153	0x3c49ff27	0.012328899
154	0xbc0af276	-0.008480659
155	0x3e624fff	0.22100829
156	0xbd2d9123	-0.04237474
157	0xbd595c6d	-0.05306666
158	0x3d6b0dd6	0.05738624
159	0x3d9c2b2b	0.07625421
160	0xbe26d1be	-0.16290948
161	0x3dd85f3f	0.10565042
162	0x3dbf8a13	0.093525074
163	0xbdddba7b	-0.10826584
164	0xbe135a03	-0.14389805
165	0x3d5d3106	0.05400183
166	0x3a6cbcf6	0.0009030843
167	0x3d7fb4d3	0.062428307
168	0x3d4c864b	0.04993276
169	0xbe87e40a	-0.26541167
170	0x3d4071ba	0.046983458
171	0x3dce698e	0.10078727
172	0xbd5f54bf	-0.05452418
173	0x3d1d5206	0.0384083
174	0x3c346304	0.011009935
175	0x3db29d71	0.08721436
176	0x3e99541e	0.2994699
177	0x3dd1d18d	0.10245047
178	0x3daab65c	0.083355635
179	0xbc97d6c8	-0.018535033
180	0x3d728463	0.059208285
181	0xbde10775	-0.109877504
182	0x3dd0096c	0.10158047
183	0x3e1997b2	0.14999273
184	0x3e68d3ee	0.22737095
185	0x3e1224e7	0.1427189
186	0xbe0e2b86	-0.1388379
187	0x3d9a9b5e	0.07549165
188	0x3e061064	0.1309219
189	0x3e731ea7	0.23742162
190	0xbd858cff	-0.065210335
191	0xbbc39db4	-0.0059697274
192	0x3e8faea9	0.28062943
193	0x3d5c99d5	0.053857643
194	0xbe00e6f1	-0.12588097
195	0x3d47b4b7	0.048756327
196	0xbdf8e21a	-0.121525005
197	0x3cb134c4	0.021631606
198	0xbdeabc8a	-0.11461742
199	0xbda1f27a	-0.07907577
200	0xbe2c73db	-0.1684107
201	0x3be78713	0.0070656626
202	0xbdc43424	-0.095802575
203	0x3e0d4d7d	0.1379909
204	0xbccef31a	-0.025262404
205	0x3ca6c45c	0.020357303
206	0x3e085f24	0.13317543
207	0x3dcdb00e	0.100433454
208	0xbe3af0a4	-0.1825586
209	0xbe252a18	-0.16129339
210	0x3d3373a6	0.043811463
211	0xbe01d2b2	-0.1267803
212	0xbdfa010a	-0.122072294
213	0x3e79bc0b	0.24388139
214	0x3d76e603	0.06027795
215	0x3e564550	0.20924878
216	0x3e585ef9	0.21129979
217	0x3d6d720d	0.057970095
218	0xbdd0ca68	-0.10194856
219	0x3e8d863d	0.27641478
220	0xbd81601e	-0.06317161
221	0xbe01e1f6	-0.12683854
222	0xbc2543d8	-0.010086976
223	0xbe3f2026	-0.18664607
224	0xbdc24122	-0.09485079
225	0x3e2dcb59	0.16972102
226	0xbdc009f7	-0.09376901
227	0x3e1792a9	0.1480204
228	0x3e6fcf2d	0.23418875
229	0xba89e856	-0.0010521512
230	0x3e550696	0.20803294
231	0x3e5fa395	0.21839745
232	0xbd2b6d77	-0.04185244
233	0x3d5e910e	0.054337554
234	0xbdc6d64b	-0.09708842
235	0x3e3f9b3a	0.18711558
236	0x3ddb77ab	0.10716184
237	0x3e2ad4b0	0.16682696
238	0xbdd1e007	-0.10247808
239	0xbdeefc6b	-0.11669239
240	0x3e0fe03a	0.1405038
241	0x3de81608	0.11332327
242	0x3dc596a3	0.09647872
243	0xbe61984d	-0.22030754
244	0xbe0629ec	-0.1310193
245	0xbd59ac18	-0.053142637
246	0x3dc8e538	0.09809345
247	0xbe41697e	-0.18887898
248	0x3e506022	0.20349172
249	0xbc632c92	-0.013865607
250	0xbe38a27e	-0.18030736
251	0x3b919ecf	0.0044439803
252	0x3e30503c	0.17218107
253	0xbd956a6d	-0.0729569
254	0x3e660ffb	0.22467034
255	0xbc350ca2	-0.011050375

gru2.weight_hh_l0 f4 [66, 22]
0	0x3d12bd05	0.035824794
1	0x3e2fe201	0.17176057
2	0xbd2cde6f	-0.042204317
3	0x3e43c5a3	0.19118361
4	0x3ddbe034	0.10736123
5	0xbdca1d24	-0.098688394
6	0x3d8ba163	0.068178914
7	0xbe899f0a	-0.2687915
8	0xbdac396f	-0.08409392
9	0xbb84c887	-0.004052225
10	0x3da2872b	0.079359375
11	0xbd4cc1f2	-0.04998965
12	0x3dc8714e	0.09787236
13	0xbe8283a4	-0.2549106
14	0x3e3dc8b8	0.185336
15	0x3b463402	0.0030243401
16	0xbe2aa62a	-0.16664949
17	0xbe5cf375	-0.21577246
18	0xbe401d1d	-0.18761106
19	0xbe377f29	-0.17919602
20	0xbd592257	-0.053011265
21	0x3e70bebb	0.23510258
22	0x3e2876f6	0.1645163
23	0x3e20e9a7	0.15714131
24	0xbe703da6	-0.23461017
25	0xbdadb099	-0.08480949
26	0xbebfcf6a	-0.37462932
27	0x3d35053d	0.04419445
28	0x3e24935a	0.16071835
29	0x3e6e8269	0.23291935
30	0xbe432992	-0.19058827
31	0xbcb5436d	-0.022126878
32	0x3cf86c78	0.03032516
33	0xbe3bd29b	-0.18342058
34	0x3db09c92	0.086236134
35	0xbd8b9d71	-0.06817139
36	0x3dbb55dd	0.091472365
37	0x3ca1a593	0.019732272
38	0x3e17b5f9	0.14815511
39	0x3e8a879c	0.27056587
40	0xbe66a5f4	-0.22524244
41	0x3d0bb8c8	0.034111768
42	0x3c7aab30	0.015299603
43	0x3d7bc2e4	0.06146516
44	0x3c9f744c	0.019464634
45	0xbe9c0119	-0.30469587
46	0x3dbbf387	0.091773085
47	0x3d55de5d	0.052214015
48	0xbe1073d2	-0.14106682
49	0x3daa2d4b	0.0830942
50	0xbe03960b	-0.12850206
51	0xbe072dfb	-0.13201134
52	0x3d6c2c67	0.057659533
53	0x3defd86e	0.117112026
54	0x3e1cf862	0.15329126
55	0xbeba39bd	-0.36372176
56	0xbe88a954	-0.26691687
57	0xbd6fb420	-0.05852139
58	0xbe1eec1b	-0.15519755
59	0xbed4f371	-0.4159198
60	0xbe291c7f	-0.16514777
61	0x3c853ff2	0.016265843
62	0xbead7efb	-0.3388594
63	0x3dd84893	0.105607174
64	0x3acc4f9b	0.0015587689
65	0x3df9f0ff	0.122041695
66	0x3befe00b	0.007320409
67	0x3e0182c8	0.12647545
68	0x3e68d38a	0.22736946
69	0xbd0ab26d	-0.033861566
70	0xbda7a2ca	-0.081853464
71	0xbd398db2	-0.045301147
72	0xbdd994d6	-0.10624091
73	0x3deb94d9	0.11503
74	0xbd805401	-0.062660225
75	0xbe2ca415	-0.16859467
76	0x3e1d0262	0.1533294
77	0x3d1e9998	0.038720697
78	0x3c73feb1	0.014892266
79	0xbdd5a1f5	-0.104312815
80	0x3d10e676	0.035376035
81	0xbcfffbd8	-0.031248018
82	0xbd5653e6	-0.052326106
83	0x3e254ec7	0.16143332
84	0x3d4acd58	0.049512237
85	0x3e709b30	0.234967
86	0xbe2b458b	-0.16725747
87	0xbe048fcc	-0.12945479
88	0x3e6b4096	0.22973856
89	0x3e21da00	0.15805817
90	0xbd85df3a	-0.06536718
91	0x3e2700ab	0.16308849
92	0x3ee0bc0d	0.4389347
93	0x3d35f40a	0.044422187
94	0x3cbb4ce8	0.02286382
95	0xbe794f5c	-0.2434668
96	0x3c216558	0.009850822
97	0x3e598869	0.21243443
98	0x3c061daf	0.008185788
99	0xbce276f2	-0.027644608
100	0x3bb455f7	0.005503412
101	0x3d702dc0	0.05863738
102	0xbe343d06	-0.17601404
103	0x3d41ce9b	0.047316175
104	0x3e48197d	0.19540973
105	0xbe9f1d6c	-0.31077135
106	0x3e2a69a8	0.16641867
107	0xbe60d7d4	-0.21957332
108	0x3dad9ceb	0.08477195
109	0x3e2acf5c	0.16680664
110	0xbd3dc0e2	-0.046326526
111	0xbda191d6	-0.07889144
112	0xbd0cd33b	-0.034381133
113	0x3e6eb42a	0.23310915
114	0x3c370c79	0.011172407
115	0xbd0e4460	-0.034733176
116	0xbd5b166a	-0.053488173
117	0xbe047e1a	-0.12938729
118	0x3b2392ab	0.0024959247
119	0x3dfbba6d	0.12291417
120	0x3e2454f0	0.16048026
121	0xbe75a9cc	-0.23990554
122	0xbd08e5e1	-0.033422355
123	0xbd5bc406	-0.05365374
124	0xbdb4841b	-0.088142596
125	0xbdfea59a	-0.1243393
126	0x3dac69d0	0.0841862
127	0xbe96f508	-0.2948382
128	0xbe4fe97c	-0.20303911
129	0x3db9a442	0.09064533
130	0x3d6ffdac	0.05859153
131	0x3db17a53	0.086659096
132	0xbd63a5e2	-0.05557812
133	0x3d80715d	0.06271622
134	0x3d7cd782	0.06172896
135	0x3e4c83a5	0.19972093
136	0xbdfa4493	-0.12220111
137	0xbddc5083	-0.10757544
138	0x3e2fc20b	0.17163865
139	0xbab15905	-0.0013530558
140	0x3d91a06c	0.07110676
141	0xbc832d1e	-0.016012724
142	0xbd6da3c0	-0.058017492
143	0x3c5137c1	0.01276964
144	0x3de4dd87	0.111750655
145	0xbd6472f7	-0.0557737
146	0xbc02af57	-0.007976375
147	0xbd15728d	-0.036486197
148	0xbd8541ae	-0.06506668
149	0x3d1afaa0	0.03783667
150	0xbc928f93	-0.017890727
151	0x3d58bc92	0.05291421
152	0xbddbc180	-0.107302666
153	0xbdb47b13	-0.08812537
154	0x3e0385ac	0.1284396
155	0xbd317a66	-0.04332962
156	0xbcab3484	-0.020899065
157	0x3dfe9e3c	0.124325246
158	0xbe23040e	-0.15919515
159	0xbd3c233c	-0.04593204
160	0xbd8c2686	-0.06843285
161	0xbd44dda3	-0.04806293
162	0xbd84722c	-0.06467089
163	0x3d77fbdf	0.060542937
164	0x3d867526	0.06565313
165	0x3dea1a18	0.11430758
166	0xbc14f408	-0.009091385
167	0xbd23e50c	-0.040013358
168	0x3b9b7eec	0.004745355
169	0x3d2d8dd1	0.042371575
170	0xbdd02603	-0.101635
171	0xbcbe01e9	-0.02319427
172	0xbc8d5124	-0.017250605
173	0x3d00c4e3	0.031437766
174	0xbc14aa8c	-0.009073865
175	0x3c78dfdf	0.015190094
176	0x3dfddeee	0.12396036
177	0xbd93d36a	-0.072180584
178	0xbd6480da	-0.055786945
179	0x3e766508	0.24061978
180	0x3e0f75c9	0.14009775
181	0x3e1edf4c	0.15514868
182	0x3db449cc	0.08803138
183	0xbe06e87b	-0.13174622
184	0xbd955d4b	-0.07293185
185	0x3e92f51c	0.2870263
186	0xbd881b88	-0.06645876
187	0xbe37d691	-0.17952944
188	0xbcf0dccb	-0.029402157
189	0x3e469fdf	0.19396923
190	0xbe215355	-0.15754445
191	0x3df002c8	0.117192805
192	0x3e1ace53	0.15117769
193	0xbe121e9d	-0.1426949
194	0x3c4efe14	0.012633819
195	0xbe8b7692	-0.272389
196	0xbce4cb81	-0.02792907
197	0x3e49297f	0.19644736
198	0xbda77998	-0.08177489
199	0xbd55cecd	-0.052199174
200	0xbdd0bfc7	-0.101928286
201	0x3cbd3ea8	0.023101166
202	0x3db3db64	0.0878208
203	0xbc675aa4	-0.0141207315
204	0x3d3cd143	0.046098005
205	0xbd8d3ba0	-0.06896138
206	0x3e075134	0.1321457
207	0xbc927093	-0.017875945
208	0xbe0cd662	-0.13753656
209	0xbc2c684b	-0.010522912
210	0x3e8ae140	0.27124977
211	0x3e17d8b1	0.14828755
212	0xbdf06e64	-0.11739805
213	0x3dea2cb8	0.11434311
214	0x3dd73f0e	0.105100736
215	0xbdc5632e	-0.09638058
216	0x3d9bf01f	0.07614159
217	0x3c9cf518	0.019159839
218	0x3d8ed2df	0.06973814
219	0xbdf0ee44	-0.117641956
220	0xbd828065	-0.063721456
221	0xbddffdaa	-0.109370545
222	0x3d66fb9d	0.0563923
223	0xbe6693a2	-0.22517255
224	0x3dd86ecf	0.1056801
225	0x3d7df72e	0.062003307
226	0xbdc38f40	-0.09548807
227	0x3df08262	0.117436185
228	0x3dea8b1d	0.11452315
229	0xbe46e0c0	-0.19421673
230	0x3db3d6d9	0.08781213
231	0xbda1849f	-0.078866236
232	0xbd8610dc	-0.065461844
233	0xbd86e42f	-0.06586491
234	0x3bdbabbf	0.0067038233
235	0xbd804261	-0.06262661
236	0x3ce3436b	0.027742108
237	0xbcd877c5	-0.026424298
238	0xbd619e5f	-0.055082675
239	0x3e8458c3	0.2584897
240	0xbe0d634c	-0.1380741
241	0xbe22e481	-0.1590748
242	0xbdf37d8b	-0.1188918
243	0x3d89d2cf	0.06729662
244	0xbd8bfb16	-0.06835
245	0xbdd06847	-0.10176139
246	0xbd3bde99	-0.045866583
247	0xbd35ca86	-0.044382595
248	0x3dd3d425	0.10343198
249	0x3e036c25	0.12834223
250	0x3dffc07c	0.12487885
251	0xbd071611	-0.03298003
252	0x3e18fd2e	0.1494033
253	0xbbf33d01	-0.0074230437
254	0x3ce4b8ee	0.027920213
255	0x3dfa4f3a	0.122221425

gru2.bias_ih_l0 f4 [66]
0	0x3e073bbb	0.13206379
1	0x3e1ec703	0.15505604
2	0x3e06b01b	0.13153116
3	0x3d6cc2c0	0.057802916
4	0xba03374f	-0.0005005495
5	0x3dd7a689	0.10529811
6	0x3dec3cb2	0.11535014
7	0x3e800ac6	0.2500822
8	0x3c1247f1	0.008928285
9	0x3cf128ee	0.029438462
10	0x3d82b044	0.06381276
11	0x3e39decf	0.18151401
12	0x3e32ddf2	0.17467478
13	0x3de9c96b	0.114153706
14	0x3d9d0a57	0.07667988
15	0x3d53800e	0.051635794
16	0x3dc8028c	0.09766111
17	0x3da4fd5b	0.08056136
18	0x3e0a765f	0.13521717
19	0x3e617f4e	0.22021219
20	0x3e073a55	0.13205846
21	0x3dfb5e46	0.122738406
22	0x3cf2edb5	0.029654363
23	0x3d4af1e9	0.04954711
24	0x3d633489	0.055470023
25	0x3d6f8ba7	0.058482792
26	0x3d92d2fc	0.07169148
27	0x3d1edeb0	0.03878659
28	0x3d180cd3	0.037121605
29	0x3cfe079d	0.03100949
30	0x3d9f395c	0.07774612
31	0x3de41c2b	0.11138185
32	0x3cf1de6b	0.029525002
33	0x3d3d068e	0.04614883
34	0x3d82924a	0.06375559
35	0x3daaf76d	0.08347974
36	0x3dab2e51	0.083584435
37	0x3d5dee61	0.054182414
38	0x3d8c558f	0.068522565
39	0x3cf1a2a3	0.029496497
40	0x3d299183	0.041398536
41	0x3c74012c	0.0148928575
42	0x3dfcb2d0	0.12338793
43	0x3d62e88f	0.055397566
44	0x3d0ae438	0.033909053
45	0x3c8a6ef3	0.016898608
46	0xbcd40c36	-0.025884729
47	0x3dab17f3	0.08354177
48	0xbcbb88c7	-0.022892369
49	0x3cc18619	0.023623513
50	0x3c79e2b7	0.015251807
51	0xbd959781	-0.07304288
52	0xbae3f9a9	-0.001739313
53	0xb9b2e080	-0.0003411807
54	0xbce8ec8b	-0.028433105
55	0xbda525c1	-0.080638416
56	0x3cac2f25	0.021018574
57	0xbca1e4cf	-0.019762425
58	0xbcaac0be	-0.02084386
59	0x3c2ee1c1	0.010673941
60	0xbcdc02d9	-0.026856827
61	0xbd4684f9	-0.048466656
62	0x3c80d3a9	0.015725927
63	0x3b3e1d35	0.0029009108
64	0xbcb7807e	-0.022400137
65	0xbc9ba496	-0.01899938

gru2.bias_hh_l0 f4 [66]
0	0x3e073bbb	0.13206379
1	0x3e1ec703	0.15505604
2	0x3e06b01b	0.13153116
3	0x3d6cc2c0	0.057802916
4	0xba03374f	-0.0005005495
5	0x3dd7a689	0.10529811
6	0x3dec3cb2	0.11535014
7	0x3e800ac6	0.2500822
8	0x3c1247f1	0.008928285
9	0x3cf128ee	0.029438462
10	0x3d82b044	0.06381276
11	0x3e39decf	0.18151401
12	0x3e32ddf2	0.17467478
13	0x3de9c96b	0.114153706
14	0x3d9d0a57	0.07667988
15	0x3d53800e	0.051635794
16	0x3dc8028c	0.09766111
17	0x3da4fd5b	0.08056136
18	0x3e0a765f	0.13521717
19	0x3e617f4e	0.22021219
20	0x3e073a55	0.13205846
21	0x3dfb5e46	0.122738406
22	0x3cf2edb5	0.029654363
23	0x3d4af1e9	0.04954711
24	0x3d633489	0.055470023
25	0x3d6f8ba7	0.058482792
26	0x3d92d2fc	0.07169148
27	0x3d1edeb0	0.03878659
28	0x3d180cd3	0.037121605
29	0x3cfe079d	0.03100949
30	0x3d9f395c	0.07774612
31	0x3de41c2b	0.11138185
32	0x3cf1de6b	0.029525002
33	0x3d3d068e	0.04614883
34	0x3d82924a	0.06375559
35	0x3daaf76d	0.08347974
36	0x3dab2e51	0.083584435
37	0x3d5dee61	0.054182414
38	0x3d8c558f	0.068522565
39	0x3cf1a2a3	0.029496497
40	0x3d299183	0.041398536
41	0x3c74012c	0.0148928575
42	0x3dfcb2d0	0.12338793
43	0x3d62e88f	0.055397566
44	0x3d465c3d	0.04842781
45	0xbba2ed10	-0.0049721077
46	0xbcd58eac	-0.026069008
47	0x3d668e1f	0.05628788
48	0xbcd45576	-0.025919657
49	0x3c9a3e39	0.018828498
50	0x3c8cf55c	0.01720684
51	0xbdae0a58	-0.08498067
52	0xbbaf4cad	-0.0053497166
53	0xbcd9426a	-0.026520927
54	0x3cc82f9c	0.024436764
55	0xbdda2135	-0.10650865
56	0x3d52f7b3	0.051505756
57	0xbc8c216d	-0.017105782
58	0xbc5d8c75	-0.013522257
59	0xbca28201	-0.019837381
60	0xbd0c491b	-0.034249406
61	0xbcf5a09c	-0.029983811
62	0x3ccfdd43	0.02537406
63	0x3c56ff0a	0.0131223295
64	0x3c0324da	0.008004392
65	0xb98dadd6	-0.00027023134

gloss_head.weight f4 [10, 22]
0	0xbea6d3bc	-0.32583416
1	0xbdf788cc	-0.12086639
2	0x3eeb9d3e	0.46018404
3	0xbe279a6d	-0.16367503
4	0x3d84f276	0.06491558
5	0xbe9dd490	-0.30826235
6	0x3ddb753f	0.10715722
7	0x3c7b068d	0.015321386
8	0x3e3ae2ef	0.18250631
9	0x3e399766	0.1812416
10	0x3e4a7dfd	0.19774623
11	0xbe28d47b	-0.16487305
12	0xbeba8df9	-0.36436442
13	0xbe66f6bd	-0.2255506
14	0x3e3766b4	0.17910272
15	0xbe82f386	-0.2557642
16	0x3e491baa	0.19639459
17	0x3d319539	0.0433552
18	0x3ecacdea	0.39610225
19	0x3e2e050a	0.1699411
20	0xbea83d14	-0.328591
21	0xbe8b9edc	-0.27269638
22	0xbee2b6bc	-0.4428004
23	0xbe96ae06	-0.29429644
24	0x3e2bca33	0.16776352
25	0xbe584b38	-0.21122444
26	0x3ecbdb67	0.39815828
27	0x3e2ba373	0.1676157
28	0xbe8a9fe0	-0.270751
29	0x3e273311	0.16328074
30	0xbe8dff59	-0.27733877
31	0x3e0cb5cd	0.13741226
32	0x3eaff98d	0.3437008
33	0xbe5e7209	-0.21723188
34	0xbe8be717	-0.27324745
35	0x3e657a3f	0.22409914
36	0x3e3407b0	0.17581058
37	0x3e916b9f	0.2840242
38	0xbeca43e6	-0.39504927
39	0x3eea0a3b	0.4571093
40	0xbe82b1ce	-0.2552628
41	0x3ef2f2ad	0.47450772
42	0x3e1a4a3e	0.15067384
43	0x3d3667f8	0.044532746
44	0x3e01c8c2	0.1267424
45	0xbe00828d	-0.12549801
46	0xbc4e36a8	-0.012586273
47	0x3e0bb354	0.13642627
48	0xbdd25be6	-0.102714345
49	0x3e866266	0.26246947
50	0x3db02aa7	0.08601885
51	0x3e209df7	0.15685259
52	0x3c9df82f	0.019283382
53	0xbe9c722f	-0.30555865
54	0x3ebf9737	0.37420055
55	0x3cad9b89	0.021192329
56	0xbed75d0a	-0.4206317
57	0x3eb46676	0.35234421
58	0x3e943f07	0.28954336
59	0xbe8ef4f1	-0.2792125
60	0xbdca8ef4	-0.098905474
61	0x3efa23bf	0.48855397
62	0x3d348568	0.04407254
63	0x3e9d09ff	0.3067169
64	0xbed6b8a8	-0.41937757
65	0xbe58a2c5	-0.21155842
66	0x3c1a3334	0.009411622
67	0xbf23b7f2	-0.63952553
68	0xbed53960	-0.41645336
69	0x3c576181	0.013145805
70	0x3f0573b2	0.5212966
71	0x3f01322a	0.5046717
72	0x3ed7b768	0.42132115
73	0xbd74a3a2	-0.059726365
74	0xbda7a8d2	-0.08186497
75	0x3edfdac3	0.4372159
76	0xbebd7ee3	-0.3701087
77	0xbe1093c4	-0.14118868
78	0x3e976f20	0.2957697
79	0x3efdd870	0.4957919
80	0xbeb1e204	-0.3474275
81	0xbecb884b	-0.3975242
82	0x3ec527b4	0.38506854
83	0xbbc83092	-0.0061093057
84	0xbf17892f	-0.591937
85	0xbe8046ec	-0.2505411
86	0x3ee0eafb	0.43929276
87	0x3ed10b4f	0.4082894
88	0xbf08e54e	-0.5347489
89	0x3f4c7496	0.79865396
90	0xbf2bf7ea	-0.6717516
91	0xbf13763d	-0.5760229
92	0x3eabea9a	0.33577424
93	0x3ebb2793	0.3655363
94	0x3f0a1b86	0.5394825
95	0x3f079fd9	0.52978283
96	0x3e154abb	0.14579289
97	0xbed49544	-0.4152013
98	0xbe3bc2e8	-0.1833607
99	0x3f2f3a7b	0.6844861
100	0x3f03a96f	0.5143041
101	0xbf2e4a12	-0.6808177
102	0x3f15bc75	0.5849069
103	0x3e0d717a	0.13812819
104	0xbdfc4dd2	-0.123195305
105	0x3f1a9e34	0.6039765
106	0x3f198392	0.59966385
107	0xbc494ff7	-0.0122871315
108	0xbf09c22f	-0.53811926
109	0x3e45ac30	0.19303966
110	0x3ee73aa7	0.45161936
111	0x3cee17bb	0.02906405
112	0xbec20283	-0.3789254
113	0xbde56f8f	-0.11202919
114	0xbe68d7ab	-0.22738521
115	0x3e926776	0.2859456
116	0x3e9583fc	0.2920226
117	0xbef9826e	-0.48732322
118	0xbe11671b	-0.14199488
119	0x3e955987	0.29169866
120	0xbd3a115a	-0.045426704
121	0xbe29a9cc	-0.16568679
122	0xbed4ac18	-0.41537547
123	0x3d8bfaad	0.06834922
124	0x3dc06c6f	0.09395682
125	0x3da467f7	0.08027642
126	0xbe84b728	-0.25920987
127	0x3da0658b	0.07831868
128	0xbe8c61bb	-0.27418312
129	0xbef5afd2	-0.47985703
130	0xbd826e94	-0.06368747
131	0x3f17231b	0.5903794
132	0x3e01abd2	0.126632
133	0xbedec63a	-0.4351061
134	0xbef2ae6c	-0.47398698
135	0xbeed6cd5	-0.46372095
136	0xbea8da65	-0.32979122
137	0x3eaceec2	0.33775908
138	0x3ed89929	0.42304352
139	0x3f0594eb	0.52180356
140	0x3f0b9ab3	0.5453293
141	0xbe038da7	-0.12847005
142	0xbf1870f1	-0.59547335
143	0x3f0f6f05	0.5602878
144	0x3db0c029	0.08630402
145	0x3effa1d2	0.49928147
146	0xbe0a26fa	-0.13491431
147	0x3ec1e0ca	0.37866813
148	0x3efc3262	0.4925719
149	0x3ea08b15	0.3135611
150	0x3e772663	0.24135737
151	0x3ee25c61	0.44211105
152	0x3ef5dafb	0.4801863
153	0xbea7fb3b	-0.3280886
154	0xbeb78077	-0.35840198
155	0x3d1b2924	0.03788103
156	0x3e239468	0.15974581
157	0x3e30d609	0.17269148
158	0x3f4932dc	0.7859323
159	0x3e9b7721	0.30364326
160	0x3f1041fc	0.56350684
161	0xbe016bb3	-0.1263874
162	0x3f294e21	0.6613484
163	0x3f0b319e	0.54372585
164	0xbec841a5	-0.39112583
165	0x3e6dc689	0.23220266
166	0x3ed8e817	0.4236457
167	0x3d481f5f	0.048858043
168	0xbec542a3	-0.38527402
169	0x3e90e046	0.28296107
170	0x3f034863	0.5128233
171	0xbe93bdd6	-0.2885577
172	0x3f277e5b	0.6542718
173	0xbead950a	-0.3390277
174	0x3e76fde6	0.24120292
175	0xbe8399bd	-0.2570323
176	0x3e617722	0.22018102
177	0x3ebd6f41	0.36998942
178	0x3d359ac1	0.044337038
179	0x3ea0f932	0.3144012
180	0xbed2ec76	-0.4119603
181	0x3eaea229	0.34108093
182	0xbdf31508	-0.11869246
183	0xbca40298	-0.020020768
184	0xbec3b84e	-0.3822655
185	0xbdcb8e5a	-0.09939261
186	0xbe187fd8	-0.14892519
187	0x3e4239f9	0.18967427
188	0xbd48a941	-0.048989538
189	0xbe48c550	-0.19606519
190	0x3d42248a	0.047398128
191	0x3eb5f467	0.35538027
192	0x3dc06dc7	0.09395938
193	0xbe2025bf	-0.15639399
194	0xbee40d43	-0.44541368
195	0xbf098ea5	-0.53733283
196	0xbe7d8c19	-0.24760474
197	0x3f14ca76	0.5812143
198	0x3ee7271a	0.4514702
199	0x3de96c19	0.11397571
200	0x3d3cfa6c	0.04613726
201	0x3e30ea33	0.1727684
202	0x3e88c41b	0.26712117
203	0xbeadf89e	-0.33978742
204	0xbd6c462a	-0.0576841
205	0xbea23379	-0.31679896
206	0x3e004608	0.12526715
207	0xbd995647	-0.07487159
208	0x3f0c7e6c	0.54880404
209	0x3d0d8097	0.03454646
210	0xbe71bd1c	-0.23607296
211	0xbe6e71bc	-0.23285574
212	0xbd15c33a	-0.036563136
213	0xbe81fde7	-0.25389025
214	0xbc1835fb	-0.009290214
215	0x3e07e77a	0.13271895
216	0x3e12c787	0.14333926
217	0x3eb16c89	0.34653118
218	0xbe36818b	-0.17822854
219	0x3e20c53c	0.15700239

gloss_head.bias f4 [10]
0	0xbaf5b8d1	-0.0018747096
1	0xbd0ecade	-0.034861438
2	0xbd2a0af4	-0.041514352
3	0xbcc20907	-0.023685945
4	0xbe2117c4	-0.15731722
5	0x3d921153	0.071322106
6	0xbd85ecbb	-0.065392934
7	0xbd5c9893	-0.053856444
8	0x3ce00839	0.02734767
9	0x3dbfe1fd	0.09369276

category_head.weight f4 [1, 22]
0	0x000036be	1.9638e-41
1	0xa127b124	-5.6816245e-19
2	0xb01c3f5a	-5.68425e-10
3	0x8000370e	-1.975e-41
4	0xb5133b84	-5.4848374e-07
5	0x000036e4	1.9691e-41
6	0x2433c975	3.898508e-17
7	0x000036de	1.9683e-41
8	0x00003804	2.0095e-41
9	0xa6b9e505	-1.289903e-15
10	0x8003db14	-3.54097e-40
11	0x22596ea2	2.9467552e-18
12	0x800036ca	-1.9655e-41
13	0x330de597	3.303793e-08
14	0x341ac5ec	1.4414371e-07
15	0x000036dd	1.9681e-41
16	0xa8fa1921	-2.7766474e-14
17	0xb699e53f	-4.586443e-06
18	0x3571a0c3	9.0013435e-07
19	0x8000154e	-7.643e-42
20	0x0000370f	1.9751e-41
21	0x35d58964	1.5909723e-06

exp_avg f4 [90, 178]
0	0x39939704	0.0002815054
1	0x398c7b7b	0.0002679488
2	0x398a163a	0.0002633797
3	0x3983e929	0.00025159985
4	0x39879d2a	0.00025866303
5	0x39801fb4	0.00024437683
6	0x398c3734	0.0002674401
7	0x39594a1a	0.00020722338
8	0x3975d5df	0.00023444694
9	0x395c6d1f	0.00021021486
10	0x39843b72	0.00025221292
11	0x396e871b	0.0002274778
12	0x3989eb28	0.0002630588
13	0x39771f65	0.00023567451
14	0x398b3a73	0.00026555694
15	0x396c0ec6	0.00022512217
16	0x3983cf5d	0.00025140765
17	0x3960b328	0.00021429046
18	0x39984fb6	0.00029051088
19	0x39823786	0.000248369
20	0x3984fd74	0.0002536584
21	0x39919aab	0.00027771792
22	0x398e23b1	0.00027110943
23	0x399e4293	0.0003018571
24	0x396b5cea	0.0002244596
25	0x399eed85	0.00030313074
26	0x39abeb4a	0.00032790966
27	0x39b9b075	0.0003541742
28	0x391d3024	0.0001499062
29	0x39c5cd7b	0.00037727863
30	0x39949454	0.00028339273
31	0x39d90258	0.00041391212
32	0x39857c32	0.0002546027
33	0x3991da04	0.0002781899
34	0x399a0539	0.0002937706
35	0x39d80e2a	0.00041209284
36	0x3967aa4b	0.00022093316
37	0x39941143	0.0002824162
38	0x39845d78	0.00025246642
39	0x39cae30c	0.00038697605
40	0x3977deba	0.00023638728
41	0x3977892c	0.00023606856
42	0x39827396	0.0002488165
43	0x39da4277	0.0004162972
44	0x396f2b88	0.00022809033
45	0x398c7956	0.00026793283
46	0x398c6762	0.00026779907
47	0x39e69f43	0.00043987678
48	0x39693aa7	0.00022242461
49	0x39cf942c	0.00039592513
50	0xb7893835	-1.6357846e-05
51	0xb7bd4f1f	-2.25674e-05
52	0xb78d15bc	-1.681863e-05
53	0xb7bc1e64	-2.2425498e-05
54	0xb78a089e	-1.6454895e-05
55	0xb7b80f90	-2.1941756e-05
56	0xb78990aa	-1.6399037e-05
57	0xb7b33abd	-2.1365815e-05
58	0xb7850b59	-1.586012e-05
59	0xb7b3e762	-2.1446209e-05
60	0xb7895f68	-1.63761e-05
61	0xb7bf09bf	-2.2773513e-05
62	0xb77e4834	-1.5156391e-05
63	0xb7b13c69	-2.1128175e-05
64	0xb789fce1	-1.6449429e-05
65	0xb7ad136c	-2.0632251e-05
66	0xb783ec5b	-1.5726479e-05
67	0xb7b712eb	-2.182411e-05
68	0xb7800b4d	-1.5264051e-05
69	0xb7b8bb71	-2.2021793e-05
70	0xb7674ff3	-1.3787288e-05
71	0xb7b041ca	-2.101147e-05
72	0xb782f8f6	-1.561314e-05
73	0xb7aa432a	-2.0296855e-05
74	0xb78095ac	-1.5328485e-05
75	0xb7b02a27	-2.1000464e-05
76	0xb784683e	-1.5784168e-05
77	0xb7c21b46	-2.3139302e-05
78	0xb7713909	-1.4377999e-05
79	0xb7b12648	-2.111787e-05
80	0xb7798979	-1.4873564e-05
81	0xb7b4d812	-2.1558288e-05
82	0xb7877176	-1.6146088e-05
83	0xb7b27946	-2.1275726e-05
84	0xb77baa15	-1.5000366e-05
85	0xb7b442ae	-2.1488722e-05
86	0xb776f81a	-1.4720508e-05
87	0xb7b7f537	-2.1929487e-05
88	0xb784a0ae	-1.5810449e-05
89	0xb7b41ac1	-2.147013e-05
90	0xb77b5fa0	-1.498303e-05
91	0xb7afe3df	-2.0967736e-05
92	0x39886359	0.0002601396
93	0x39943c55	0.0002827371
94	0x39740cf7	0.00023274483
95	0x398e8032	0.00027179864
96	0x3973e8dd	0.00023261034
97	0x399685ac	0.00028709823
98	0x39882225	0.0002596538
99	0x398d40fb	0.0002694203
100	0x39808f98	0.00024521048
101	0x397ff4cf	0.00024409893
102	0x396bb771	0.00022479684
103	0x3991ad88	0.00027785846
104	0x398556a1	0.0002543228
105	0x398f5cfd	0.00027344367
106	0x3982a770	0.00024920283
107	0x398d8097	0.00026989423
108	0x3984fb84	0.00025364396
109	0x398548aa	0.00025421876
110	0x39872e4d	0.00025783703
111	0x398f5b61	0.00027343168
112	0x3985ca89	0.00025518637
113	0x39860177	0.00025559563
114	0x398d4027	0.00026941413
115	0x3996157c	0.00028626237
116	0x398717cb	0.00025766934
117	0x3983f7bc	0.00025170844
118	0x3977e002	0.00023639205
119	0x3987851c	0.0002584838
120	0x39872fea	0.00025784905
121	0x39951088	0.0002843181
122	0x39827dec	0.0002488935
123	0x398aa0f0	0.0002644132
124	0x3981741e	0.0002469131
125	0x39916339	0.00027730482
126	0x39876768	0.0002582625
127	0x398c61ee	0.00026775844
128	0x3982c15c	0.00024939596
129	0x3997b08a	0.00028932496
130	0x398ebca6	0.00027224905
131	0x399a5c04	0.00029441726
132	0x3984e6c6	0.00025348942
133	0x3991fb91	0.00027843987
134	0x3972ce1b	0.00023155699
135	0x3986e244	0.00025727053
136	0x3990b93e	0.00027603836
137	0x39815c28	0.0002467346
138	0x3977ddd8	0.00023638399
139	0x399130f3	0.00027693025
140	0x3986bfe9	0.00025701456
141	0x398798e3	0.00025863116
142	0x3990c572	0.00027612929
143	0x397dbec1	0.00024199022
144	0x39843196	0.00025213946
145	0x3986ad10	0.00025687413
146	0x3992fe1b	0.00028036613
147	0x398abba6	0.0002646122
148	0x39876b00	0.00025828928
149	0x398e4796	0.00027137686
150	0x397b37ef	0.00023958062
151	0x395fba1a	0.00021336265
152	0x3982e526	0.0002496626
153	0x39855b6b	0.00025435849
154	0x3962c415	0.00021626086
155	0x398306b1	0.00024991253
156	0x39781a8c	0.00023661013
157	0x3959c3fe	0.00020767745
158	0x397eabb9	0.000242873
159	0x3980065f	0.0002441881
160	0x398d8e6b	0.00026999725
161	0x3956575f	0.00020441179
162	0x39699052	0.00022274375
163	0x397a9d04	0.00023900351
164	0x3991c0bd	0.00027800156
165	0x39674343	0.00022054934
166	0x397f3640	0.00024338905
167	0x395c42f6	0.0002100578
168	0x399606eb	0.00028615384
169	0x396d1d50	0.00022613001
170	0x39735b2b	0.00023208249
171	0x398067a3	0.00024491278
172	0x399a8b53	0.00029476974
173	0x397effee	0.00024318669
174	0x39873fe6	0.00025796815
175	0x3976224a	0.00023473162
176	0x3990a66d	0.00027589817
177	0x39642816	0.00021758708
178	0xb9bb1aa6	-0.00035687274
179	0xb994e0fc	-0.00028396386
180	0xb9b2ac87	-0.0003407935
181	0xb98b750a	-0.00026599347
182	0xb9b8e4fd	-0.00035265824
183	0xb98b9047	-0.0002661964
184	0xb9bef149	-0.00036419395
185	0xb994279e	-0.00028258277
186	0xb9b77af9	-0.00034996102
187	0xb990c334	-0.00027611258
188	0xb9a4fcf5	-0.00031468985
189	0xb993736f	-0.0002812403
190	0xb9ac826e	-0.00032903574
191	0xb990a978	-0.00027592084
192	0xb9b73175	-0.00034941328
193	0xb98b7b5c	-0.00026604056
194	0xb9a9a221	-0.00032354987
195	0xb9926ae1	-0.0002792692
196	0xb9c2b0f1	-0.00037134395
197	0xb99b330d	-0.0002960194
198	0xb9b09705	-0.00033681854
199	0xb9995ba0	-0.000292507
200	0xb9d546fb	-0.0004067941
201	0xb9bb81e4	-0.00035764195
202	0xb98e53cf	-0.00027146793
203	0xb9ae8fca	-0.00033294997
204	0xb9e04cd3	-0.00042781848
205	0xb9f43641	-0.0004657973
206	0xb9731c5e	-0.00023184853
207	0xb9ee6399	-0.00045469103
208	0xb9c45a44	-0.00037451286
209	0xba0c1a08	-0.0005344455
210	0xb99d640e	-0.0003001992
211	0xb9f42366	-0.0004656568
212	0xb9c208b3	-0.00037009045
213	0xba101be2	-0.0005497319
214	0xb99b032f	-0.00029566276
215	0xb9f1a82c	-0.000460924
216	0xb9c3e3ed	-0.00037363116
217	0xba0639c2	-0.0005120301
218	0xb9ae8558	-0.00033287215
219	0xb9e620dc	-0.000438935
220	0xb9c2bf79	-0.00037145222
221	0xba062756	-0.0005117556
222	0xb99d3b4f	-0.00029989562
223	0xb9d27344	-0.000401402
224	0xb9c2c66b	-0.00037150396
225	0xba13852a	-0.0005627448
226	0xb991ebe2	-0.00027832302
227	0xba0ba93d	-0.00053276477
228	0xb7d31a9c	-2.5165551e-05
229	0xb7bc410d	-2.2441638e-05
230	0xb7e87467	-2.771076e-05
231	0xb7acc476	-2.0595482e-05
232	0xb7f58f1b	-2.9272915e-05
233	0xb7b36cf2	-2.1389194e-05
234	0xb7e68432	-2.7479695e-05
235	0xb7dba2d7	-2.6182663e-05
236	0xb7b3d458	-2.1437343e-05
237	0xb79c54b1	-1.8636087e-05
238	0xb7cffea2	-2.4794896e-05
239	0xb7bea010	-2.27243e-05
240	0xb7df4f70	-2.6620663e-05
241	0xb7cbecea	-2.4309807e-05
242	0xb7d55174	-2.5429508e-05
243	0xb7bdacd6	-2.2611039e-05
244	0xb7b76346	-2.1861528e-05
245	0xb7b326cb	-2.1356527e-05
246	0xb7db21fe	-2.6122663e-05
247	0xb7b30746	-2.134185e-05
248	0xb7e4a729	-2.7257558e-05
249	0xb7b4f5bd	-2.1572103e-05
250	0xb7c69b47	-2.3675746e-05
251	0xb7c2e449	-2.3232906e-05
252	0xb7d39a28	-2.5224945e-05
253	0xb7e154af	-2.6861524e-05
254	0xb7b0faff	-2.1097714e-05
255	0xb7a927eb	-2.0164958e-05
