MediaPipeGRUCtc_best.pt (torch, 614533 bytes, 57 tensors)

gru1.weight_ih_l0 f4 [90, 178]
0	0xbc826304	-0.015916355
1	0x3d71eb4c	0.059062287
2	0xbb4123e1	-0.0029470848
3	0xbdd29b77	-0.10283559
4	0x3e214538	0.15749061
5	0x3d17210f	0.03689676
6	0xbdfe4dc5	-0.12417177
7	0x3ce9413b	0.028473487
8	0x3e0fa8d8	0.14029253
9	0xbb1b9ff9	-0.0023746474
10	0x3c4856d0	0.012227729
11	0xbd35bbc9	-0.04436854
12	0xbd6679d4	-0.056268528
13	0xbd7b98e8	-0.06142512
14	0x3d2ff47c	0.042957768
15	0xbe09ac8e	-0.1344473
16	0xbd83d0a8	-0.064362824
17	0x3e088dcd	0.13335343
18	0x3d2359a1	0.0398804
19	0xbcd09980	-0.02546382
20	0x3d115f27	0.035491135
21	0xbc9be988	-0.019032255
22	0x3cb3c895	0.02194623
23	0xbdf3d247	-0.119053416
24	0x3e22863d	0.1587152
25	0xbdc3b928	-0.095568
26	0x3df1e8dc	0.118119925
27	0xbdca9ffc	-0.09893796
28	0x3cedc4c5	0.029024491
29	0xbded3841	-0.11582995
30	0x3b0590aa	0.0020380416
31	0x3da73b8c	0.081656545
32	0xbe0b20d5	-0.13586743
33	0xbd977f59	-0.073973365
34	0xbdbd721e	-0.09250282
35	0xbda99d8e	-0.08282004
36	0x3dc5d956	0.09660594
37	0x3e025789	0.12728705
38	0xbdd6fb16	-0.104971096
39	0x3dbd9aca	0.09258039
40	0x3c240654	0.010011274
41	0xbdf6b440	-0.12046099
42	0xbdc27a6e	-0.09496008
43	0x3b9c452b	0.0047689877
44	0xbca272da	-0.019830156
45	0xbd97ef67	-0.07418709
46	0xbca55f17	-0.020186944
47	0xbdaddddb	-0.08489581
48	0x3da82fe5	0.0821226
49	0xbdf5d171	-0.120028384
50	0x3d613e04	0.054990783
51	0xbd88967f	-0.0666933
52	0x3d6ff677	0.058584657
53	0x3df270bc	0.118379086
54	0x3d3c049b	0.04590283
55	0x3d5a66b7	0.053320613
56	0x3dd03488	0.101662695
57	0xbddc857b	-0.10767647
58	0x3d5848b2	0.052803703
59	0x3de4fcce	0.11181031
60	0x3dd185a5	0.10230569
61	0xbd07b5b3	-0.033132266
62	0xbddd490c	-0.10804948
63	0x3e0772a2	0.13227323
64	0xbc2e0ae3	-0.010622713
65	0x3cfe8dca	0.03107347
66	0xbd7c63be	-0.06161856
67	0x3de5582f	0.1119846
68	0xbd4cacc1	-0.04996944
69	0x390ea87b	0.00013604939
70	0x3da1c577	0.078989916
71	0xbdec4fe0	-0.115386724
72	0xbd4c04aa	-0.049809135
73	0x3d7f5b57	0.062342968
74	0x3dc40dba	0.09572931
75	0xbd2ab915	-0.041680414
76	0x3d5a2050	0.05325347
77	0xbd99461f	-0.07484078
78	0xbe113a24	-0.14182335
79	0xbd98d487	-0.074624114
80	0xbe01b525	-0.12666757
81	0x3e0e471b	0.13894312
82	0xbdbfc7b0	-0.09364259
83	0x3d87f080	0.066376686
84	0xbd17dd51	-0.0370763
85	0xbd2e4d63	-0.04255427
86	0x3cc9b5a6	0.02462275
87	0x3d5478b4	0.051872924
88	0x3d87f285	0.06638054
89	0x3de97fc3	0.11401322
90	0xbbf389b3	-0.0074321865
91	0x3de6463a	0.112438634
92	0x3d660a8c	0.056162402
93	0xbd98a9b1	-0.07454241
94	0xbde3edec	-0.11129364
95	0xbe12365f	-0.14278553
96	0x3dcae044	0.099060565
97	0x3dffd160	0.12491107
98	0x3dfb195f	0.122606985
99	0xbd7860cb	-0.060639184
100	0x3dc31e0d	0.09527216
101	0x3db12347	0.08649307
102	0x3df19575	0.11796085
103	0xbdc38b8d	-0.095481016
104	0x3da39b69	0.079886265
105	0xbdd82e2c	-0.105556816
106	0x3d95135b	0.072790824
107	0x3c2979de	0.010343997
108	0xbd88284c	-0.06648311
109	0x3e057cb1	0.13035847
110	0xbe0de17b	-0.13855545
111	0xbca34a09	-0.019932764
112	0x3c5c22fe	0.013436077
113	0xbdb4316a	-0.087984875
114	0x3dde5b50	0.1085726
115	0x3c5c8c6f	0.013461216
116	0xbe115875	-0.141939
117	0xbcb40262	-0.021973792
118	0x3d05547a	0.032551266
119	0x3d4e9e22	0.050443776
120	0xbcd76a9f	-0.026295958
121	0xbd480b33	-0.048838805
122	0x3daa9116	0.08328454
123	0xbdca39fa	-0.098743394
124	0xbbc47925	-0.005995887
125	0x3c7fe107	0.015617616
126	0x3e0d0c00	0.13774109
127	0xbdf44623	-0.1192744
128	0xbd6ff258	-0.058580726
129	0x3de0c69f	0.10975384
130	0x3dbe5afb	0.09294697
131	0xbde252d1	-0.11050952
132	0xbd98c7aa	-0.07459958
133	0xbda8cc88	-0.08242136
134	0x3db094fa	0.08622165
135	0x3dff2869	0.124588795
136	0xbbaaf1a5	-0.0052167946
137	0xbc91610e	-0.017746475
138	0xbdde369f	-0.10850262
139	0x3d57fea1	0.052733067
140	0x3dc49ae7	0.09599858
141	0xbd9dc43e	-0.07703446
142	0x3d472a75	0.048624475
143	0x3d598e30	0.053114116
144	0xbd9ee594	-0.07758632
145	0xbd669f88	-0.056304485
146	0xbd85ffd2	-0.065429345
147	0xbd8b1390	-0.067908406
148	0xbdfe7d57	-0.124262504
149	0xbdab160d	-0.08353815
150	0x3d235040	0.039871454
151	0x3d58430b	0.052798312
152	0xbce36a9f	-0.027760802
153	0x3c94557d	0.01810717
154	0x3e1a5660	0.15072012
155	0x3db6d097	0.08926504
156	0xbd47e512	-0.048802443
157	0x3e1792ce	0.14802095
158	0xbc95d17c	-0.018288366
159	0x3d64ba46	0.055841707
160	0xbc8fa638	-0.017535314
161	0x3dd55956	0.1041743
162	0x3cce5033	0.025184726
163	0xbbe68beb	-0.0070357225
164	0x3dba7284	0.09103873
165	0x3d9feabb	0.07808443
166	0x3dbfe326	0.09369497
167	0x3e192ec4	0.14959246
168	0x3b63e5bd	0.0034774386
169	0x3dc32256	0.095280334
170	0xbdcb7b8c	-0.09935674
171	0x3d45dcd9	0.04830632
172	0xbe05f195	-0.13080437
173	0xbc1f8be7	-0.009737945
174	0xbd7b6898	-0.061379045
175	0x3de44701	0.111463554
176	0x3e0019b6	0.12509808
177	0xbdebfeb7	-0.115231924
178	0x3df102a1	0.117680795
179	0x3de179ba	0.110095456
180	0x3b4701f3	0.0030366152
181	0x3cf6b84c	0.030117176
182	0xbbf43218	-0.0074522607
183	0xbdb9b1e7	-0.09067135
184	0x3e10aeff	0.14129256
185	0x3e10b4a3	0.14131407
186	0xbd4cb221	-0.049974564
187	0x3d3bc634	0.045843318
188	0x3dc13c81	0.09435368
189	0x3d81c2cb	0.06335982
190	0x3ddeac7e	0.10872744
191	0x3d9404e7	0.072274975
192	0xbd5b7f83	-0.0535884
193	0xbd3320ac	-0.04373233
194	0xbccb4ea8	-0.02481778
195	0xbc77c95b	-0.0151236905
196	0xbd32c4da	-0.043644764
197	0xbdf6c641	-0.12049533
198	0x3e16823f	0.14698122
199	0x3d8b1915	0.067918934
200	0xbc7ceef5	-0.015437831
201	0xbd9e6027	-0.07733183
202	0x3cbbd6b4	0.022929527
203	0xbdd5b5a1	-0.104350336
204	0xbd72d574	-0.059285596
205	0xbd443286	-0.047899745
206	0x3ddfb890	0.109238744
207	0x3b0dee9f	0.0021657122
208	0x3d839cb6	0.064263746
209	0x3c14ee74	0.009090055
210	0x3bd241d2	0.006416538
211	0x3e12a1d4	0.14319545
212	0x3becc2c9	0.0072253686
213	0x3cfd8250	0.030945927
214	0xbd66db9f	-0.05636179
215	0xbda4f6c7	-0.080548815
216	0xbe0e60e7	-0.13904153
217	0x3c9c92a9	0.019112902
218	0xbd8e8b58	-0.069601715
219	0xbd9f7e84	-0.07787803
220	0xbdcd4fe6	-0.10025005
221	0xbb9c2311	-0.0047649224
222	0x3d837344	0.064184695
223	0xbe1947cc	-0.14968795
224	0xbd17f11a	-0.037095167
225	0x3e07b45e	0.13252398
226	0xbcef29a2	-0.029194657
227	0xbdcafce6	-0.09911518
228	0xbde8cff9	-0.11367793
229	0xbd927a07	-0.07152181
230	0x3e0fcc69	0.1404282
231	0xbd9c9d6d	-0.07647214
232	0xbda29927	-0.07939368
233	0xbdc3cd4b	-0.09560641
234	0x3cc6e623	0.02427966
235	0x3db5a73f	0.0886979
236	0x3dcc93d2	0.09989132
237	0x3d7fbf73	0.06243844
238	0x3db5d1e7	0.08877926
239	0xbe0790cc	-0.1323883
240	0xbc45f034	-0.012081195
241	0xbdf4991a	-0.11943264
242	0x3d8b2e88	0.067959845
243	0x3d20d045	0.03926112
244	0xbcdfd396	-0.027322572
245	0x3e0dfe67	0.13866578
246	0xbdb6450c	-0.088998884
247	0xbd358c32	-0.044323154
248	0x3c9fa4a6	0.01948769
249	0x3d8f448d	0.06995497
250	0x3caa5288	0.020791307
251	0x3d278cfb	0.040905934
252	0x3e03eb27	0.12882672
253	0x3da07f04	0.07836726
254	0x3e1bffe5	0.15234335
255	0xbd8e9d62	-0.06963612

gru1.weight_hh_l0 f4 [90, 30]
0	0x3d2d5b3b	0.042323332
1	0x3df01381	0.1172247
2	0x3da1c86c	0.078995556
3	0x3c96e687	0.01842047
4	0xbe2e5ca7	-0.17027532
5	0xbd64cbec	-0.055858538
6	0xbcf577d3	-0.029964363
7	0x3da31e57	0.07964771
8	0xbd5a102d	-0.053238083
9	0x3e39eb22	0.18156102
10	0x3c1bae77	0.009502045
11	0x3d8f2b58	0.06990689
12	0xbd40e045	-0.04708888
13	0x3d1e9f28	0.038726002
14	0xbd2a3def	-0.04156297
15	0x3e744c21	0.23857166
16	0xbd9c9242	-0.07645084
17	0xbe8188b2	-0.25299603
18	0xbdaca52e	-0.08429943
19	0xbd278633	-0.040899467
20	0xbded2ace	-0.1158043
21	0x3a415d24	0.0007376245
22	0x3d85a941	0.06526423
23	0xbeb7e7f9	-0.3591917
24	0x3c8cddd1	0.017195614
25	0x3d81bf6a	0.063353375
26	0x3e1417b9	0.14462174
27	0xbbec68ae	-0.007214627
28	0xbd2051f3	-0.039140653
29	0xbd54cfc1	-0.051955942
30	0xbdb17da6	-0.08666544
31	0xbc3e43d9	-0.011612856
32	0xbd0dae8c	-0.03459029
33	0x3e15f9a0	0.14646006
34	0x3dc9a52c	0.09845957
35	0x3df01c02	0.11724092
36	0xbe05c4a4	-0.13063294
37	0xbe87ce8c	-0.2652477
38	0xbcf86834	-0.030323125
39	0x3d34a199	0.044099424
40	0x3d95f5a2	0.07322241
41	0xbe6a0b0a	-0.22855774
42	0x3e18370b	0.14864747
43	0x3da7a311	0.08185399
44	0xbdc4276a	-0.0957783
45	0x3dce8e1e	0.100857005
46	0xbc2c4d0f	-0.010516419
47	0x3df72907	0.12068372
48	0xbdbc5dbf	-0.09197568
49	0xbd1ac40a	-0.037784614
50	0x3d834a34	0.064106375
51	0x3e3685b1	0.17824437
52	0xbb75f525	-0.003753015
53	0x3d8076f0	0.062726855
54	0x3e09fcf6	0.13475403
55	0xbafe9492	-0.001942294
56	0x3d80e822	0.06294276
57	0xbd53e824	-0.05173506
58	0xbd9f8dd8	-0.077907264
59	0xbda966a0	-0.08271527
60	0x3d8abdc4	0.06774476
61	0x3c273f52	0.010207968
62	0x3d1e1443	0.03859354
63	0xbd23c61d	-0.039983857
64	0xbdbd0a7b	-0.092305146
65	0xbe123f1e	-0.1428189
66	0x3e34eab3	0.17667656
67	0xbcbfd796	-0.02341823
68	0x3c7325a1	0.014840514
69	0xbd1d13fc	-0.038349137
70	0x3d0d7d72	0.034543462
71	0x3e0e5ea3	0.13903289
72	0xbd966197	-0.073428325
73	0x3e8688a7	0.26276132
74	0x3d07ffd2	0.033202954
75	0x3c24de0d	0.010062707
76	0x3e1da26e	0.15393993
77	0x3d029acd	0.03188591
78	0x3d8f27bb	0.0699
79	0xbd5d958f	-0.05409771
80	0xbd15acee	-0.03654187
81	0x3e0b6107	0.13611232
82	0x3e878b19	0.2647331
83	0xbda764ea	-0.08173545
84	0x3dd20f33	0.10256805
85	0xbdcdb12e	-0.1004356
86	0xbd4621b4	-0.048371986
87	0x3c9832d5	0.018578926
88	0xbddf66b4	-0.10908261
89	0xbe34c989	-0.17655005
90	0xbda5aab1	-0.080891974
91	0xbd9466d1	-0.07246173
92	0x3e034323	0.1281858
93	0x3d140ba0	0.0361439
94	0xbe2ad042	-0.16681007
95	0x3dbdb4c2	0.092629924
96	0xb9e0ae9c	-0.00042854703
97	0xbe5ed5eb	-0.2176129
98	0xbd0cee4f	-0.034406956
99	0xbd85fbc3	-0.0654216
100	0xbe121b7a	-0.14268294
101	0xbe08cf61	-0.13360359
102	0x3c54c688	0.012986787
103	0xbd2750d1	-0.040848557
104	0x3c820396	0.01587085
105	0xbe0cf530	-0.13765407
106	0xbd8d8465	-0.06910018
107	0xbe04d530	-0.1297195
108	0xbdf723e6	-0.12067394
109	0x3e26de8b	0.16295831
110	0xbdef38d3	-0.1168076
111	0x3e42aa38	0.19010246
112	0xbd76f7d3	-0.060294937
113	0x3d9006a7	0.07032519
114	0x3cd62214	0.026139297
115	0x3cb65c0d	0.02226069
116	0xbc411b6d	-0.011786324
117	0x3d59f164	0.053208724
118	0xbd385255	-0.045000393
119	0x3c26f544	0.010190312
120	0x3df3c6e5	0.119031705
121	0xbd4464ac	-0.04794757
122	0xbd868ee6	-0.065702245
123	0x3d434efe	0.047682755
124	0xbe389353	-0.1802495
125	0x3d43104c	0.047622964
126	0xbe1f7141	-0.15570547
127	0xbe246610	-0.16054559
128	0xbc916255	-0.017747084
129	0xbe035fda	-0.12829533
130	0xbd6a2847	-0.057167318
131	0xbd40d766	-0.04708042
132	0xbe7f70af	-0.24945329
133	0xbdaa37bf	-0.08311414
134	0xbe34a8b1	-0.17642476
135	0x3c561eef	0.013068899
136	0xbe0b2a45	-0.13590343
137	0x3b6d79b7	0.0036235878
138	0x3ddd1265	0.10794524
139	0x3cb527ad	0.022113645
140	0xbe07ad85	-0.13249786
141	0xbc0c1ef7	-0.0085523045
142	0xbe1eb38d	-0.1549818
143	0x3c387b17	0.011259816
144	0xbcf5d456	-0.030008476
145	0xbe1353d7	-0.14387451
146	0xbce69cdc	-0.028150968
147	0xbd4ce668	-0.05002442
148	0xbe98fa75	-0.29878584
149	0xbd047254	-0.032335594
150	0x3d460cb0	0.048351943
151	0x3dfd8c21	0.12380243
152	0xbd47cff9	-0.048782323
153	0x3e10534d	0.14094277
154	0x3d160758	0.036628097
155	0xbc9a040b	-0.018800756
156	0x3e042363	0.12904124
157	0x3db476d3	0.088117264
158	0x3cc48f29	0.023994045
159	0x3e1e7a1e	0.15476272
160	0xbd947623	-0.07249095
161	0x3b19b95f	0.0023456437
162	0xbc59605f	-0.013267606
163	0x3e2bc096	0.16772684
164	0xbdec4813	-0.115371846
165	0x3d90c486	0.07068734
166	0xbdd02dca	-0.101649836
167	0x3d971d6b	0.07378658
168	0xbeb7a8c0	-0.35870934
169	0x3e5a45e8	0.2131573
170	0xbe271779	-0.16317548
171	0x3da6ebc6	0.08150439
172	0xbe34522a	-0.17609468
173	0x3e72d776	0.23715004
174	0xbdbf6656	-0.09345691
175	0xbcd039ad	-0.025418127
176	0x3c7033a5	0.0146607505
177	0x3e282234	0.16419297
178	0x3df50661	0.11964107
179	0xbd6a5ca1	-0.057217244
180	0x3e0712ea	0.13190809
181	0x3defd34c	0.117102236
182	0xbcf557cb	-0.02994909
183	0x3e26d1a2	0.16290906
184	0x3d016e67	0.03159943
185	0x3dadcbe0	0.08486152
186	0xbbd61fe6	-0.0065345643
187	0x3d258ca3	0.040417325
188	0x3d823e25	0.063595094
189	0xbdb690ff	-0.089143746
190	0x3d99954e	0.07499181
191	0xbe2193bb	-0.15779011
192	0xbdd07a8b	-0.10179623
193	0xbb620e84	-0.0034493515
194	0x3c8375c6	0.01604737
195	0xbd525baf	-0.051356968
196	0x3d8cc79b	0.06874009
197	0xbcfd3836	-0.030910593
198	0xbd926714	-0.07148567
199	0x3e6d63a6	0.23182544
200	0xbe251fc5	-0.161254
201	0x3dadf2bc	0.084935635
202	0xbc7e400f	-0.015518202
203	0xbe3a779a	-0.18209687
204	0xbdae22bb	-0.08502718
205	0x3d2307d5	0.03980239
206	0xbdbd7b19	-0.09251995
207	0x3d38c55b	0.045110088
208	0xbd337675	-0.04381414
209	0xbdf8e946	-0.121538684
210	0x3e2ba0bd	0.16760536
211	0x3d499b23	0.049220216
212	0x3de4f5ff	0.111797325
213	0xbc999897	-0.018749518
214	0xbe8ebc2c	-0.2787794
215	0x3e2bd281	0.1677952
216	0x3e2c73c3	0.16841035
217	0xbd655c67	-0.055996325
218	0xbb168722	-0.002296873
219	0x3e308734	0.17239076
220	0x3dd8618f	0.10565483
221	0x3e0e8761	0.1391883
222	0xbde33292	-0.1109363
223	0x3dcd27a8	0.100173295
224	0xbe14b9dd	-0.14524026
225	0xbe4ff346	-0.20307645
226	0xbe1f867d	-0.15578647
227	0xbd0c8330	-0.034304798
228	0xbe0bb0a1	-0.13641597
229	0xbda0de62	-0.07854916
230	0x3a466ef8	0.0007569636
231	0xbc8c8873	-0.017154908
232	0x3dd1566f	0.10221564
233	0x3cfd502b	0.030922016
234	0xbd1a9fe0	-0.037750125
235	0x3cd54265	0.026032636
236	0xbd133549	-0.03593949
237	0x3e05a628	0.13051665
238	0x3c999c28	0.018751219
239	0xbe7f8b0b	-0.24955384
240	0xbb25fab0	-0.0025326423
241	0xbd8b6ff8	-0.06808466
242	0xbd2525f9	-0.040319417
243	0x3e06e3a5	0.13172777
244	0x3dd0b91f	0.10191559
245	0xbe057cf5	-0.13035949
246	0x3e999974	0.29999888
247	0x3dc090e2	0.09402634
248	0xbd928b6d	-0.071554996
249	0x3e1f9fd4	0.15588313
250	0xbb3aefb2	-0.0028524217
251	0xbe80add0	-0.25132608
252	0xbd9f3d40	-0.077753544
253	0x3e0fe8e8	0.1405369
254	0xbdb9edc2	-0.09078552
255	0xbe2ac571	-0.1667688

gru1.bias_ih_l0 f4 [90]
0	0x3c260778	0.010133617
1	0x3a316f29	0.00067685783
2	0x3c90a805	0.017658243
3	0x3c3fcad9	0.0117060775
4	0x3c88058d	0.01660421
5	0x3c0b8851	0.008516387
6	0xba450d68	-0.00075169513
7	0x3c6c4fbe	0.014423309
8	0x3c3d7ae1	0.011564941
9	0x3c2ec399	0.010666751
10	0xbbcb3fdb	-0.0062026805
11	0xbb4d96ad	-0.0031370327
12	0xbbaf3d12	-0.0053478563
13	0xbbd7b902	-0.006583334
14	0x3b8a8b82	0.0042280564
15	0x3c285c3b	0.010275896
16	0x3c35fa0c	0.011106979
17	0x3c39c05d	0.011337367
18	0xbc9ae427	-0.01890762
19	0xbc1abab8	-0.009443931
20	0x3c3dbfec	0.011581402
21	0x3c47caaa	0.012194315
22	0x3c869d63	0.01643247
23	0x3bc7eb52	0.0061010504
24	0x3ccbff24	0.024901934
25	0x3ccec8ec	0.025242291
26	0x3c6cb1a2	0.014446648
27	0xbc56e13a	-0.013115222
28	0xbb441371	-0.0029918815
29	0x3c5fed88	0.013667472
30	0x3cc4aabd	0.024007196
31	0x3c6209e0	0.0137963
32	0x3bea32df	0.0071471776
33	0x3b8fbb93	0.0043863743
34	0xbc47994d	-0.012182546
35	0x3acdc78a	0.0015699726
36	0xbbf921f0	-0.0076029226
37	0x3c0d4b67	0.008623934
38	0x3d351dbf	0.04421782
39	0x3bf8a49e	0.0075879833
40	0x3beeacbb	0.0072837747
41	0x3cc65038	0.024208173
42	0xbb14ab9b	-0.0022685293
43	0x3b9b0019	0.0047302363
44	0xbc67002d	-0.014099163
45	0xbb9025a1	-0.004399017
46	0xbb69a917	-0.0035653764
47	0x3aaf15ec	0.0013357974
48	0x3c3830af	0.011242076
49	0xbb8016d4	-0.0039089713
50	0x3ba6dc1a	0.005092156
51	0x3c1ef0cb	0.009700964
52	0x3c25dc6f	0.010123356
53	0x3a00cae6	0.0004913047
54	0x3b784d43	0.0037887848
55	0xbc2537ca	-0.010084102
56	0xbc2205d1	-0.009889082
57	0x3c162b8f	0.009165659
58	0xbc1f390d	-0.009718192
59	0x3adca5f6	0.0016834128
60	0xbc162174	-0.009163249
61	0x3c05ae5b	0.008159245
62	0xbc356bc0	-0.011073053
63	0x3c15303d	0.009105739
64	0xbc5ae753	-0.013360816
65	0x3c0cc60a	0.008592138
66	0x3c4acc54	0.012377817
67	0xbc204955	-0.009783109
68	0x3c2fbea5	0.010726606
69	0x3c04ee05	0.008113389
70	0x3c051121	0.00812176
71	0xbc1a61c5	-0.009422724
72	0x3b3ffbe4	0.0029294426
73	0x3ac026f6	0.0014660049
74	0xbc755af6	-0.0149753
75	0xbc4dea18	-0.012568019
76	0x3c10b78c	0.0088328235
77	0xbc13e952	-0.009027796
78	0xbc2bb10e	-0.010479225
79	0xbc2a944c	-0.010411333
80	0xbc1deea3	-0.009639415
81	0x3bdfc137	0.006828453
82	0xbc283179	-0.010265701
83	0xbb8336c5	-0.004004332
84	0xbbdfe7b3	-0.0068330406
85	0x3c742c5d	0.014903155
86	0x3bfe6af7	0.007764216
87	0x3c33cd18	0.010974191
88	0xbbea7d8d	-0.00715608
89	0xbc18f7a5	-0.009336387

gru1.bias_hh_l0 f4 [90]
0	0x3c260778	0.010133617
1	0x3a316f29	0.00067685783
2	0x3c90a805	0.017658243
3	0x3c3fcad9	0.0117060775
4	0x3c88058d	0.01660421
5	0x3c0b8851	0.008516387
6	0xba450d68	-0.00075169513
7	0x3c6c4fbe	0.014423309
8	0x3c3d7ae1	0.011564941
9	0x3c2ec399	0.010666751
10	0xbbcb3fdb	-0.0062026805
11	0xbb4d96ad	-0.0031370327
12	0xbbaf3d12	-0.0053478563
13	0xbbd7b902	-0.006583334
14	0x3b8a8b82	0.0042280564
15	0x3c285c3b	0.010275896
16	0x3c35fa0c	0.011106979
17	0x3c39c05d	0.011337367
18	0xbc9ae427	-0.01890762
19	0xbc1abab8	-0.009443931
20	0x3c3dbfec	0.011581402
21	0x3c47caaa	0.012194315
22	0x3c869d63	0.01643247
23	0x3bc7eb52	0.0061010504
24	0x3ccbff24	0.024901934
25	0x3ccec8ec	0.025242291
26	0x3c6cb1a2	0.014446648
27	0xbc56e13a	-0.013115222
28	0xbb441371	-0.0029918815
29	0x3c5fed88	0.013667472
30	0x3cc4aabd	0.024007196
31	0x3c6209e0	0.0137963
32	0x3bea32df	0.0071471776
33	0x3b8fbb93	0.0043863743
34	0xbc47994d	-0.012182546
35	0x3acdc78a	0.0015699726
36	0xbbf921f0	-0.0076029226
37	0x3c0d4b67	0.008623934
38	0x3d351dbf	0.04421782
39	0x3bf8a49e	0.0075879833
40	0x3beeacbb	0.0072837747
41	0x3cc65038	0.024208173
42	0xbb14ab9b	-0.0022685293
43	0x3b9b0019	0.0047302363
44	0xbc67002d	-0.014099163
45	0xbb9025a1	-0.004399017
46	0xbb69a917	-0.0035653764
47	0x3aaf15ec	0.0013357974
48	0x3c3830af	0.011242076
49	0xbb8016d4	-0.0039089713
50	0x3ba6dc1a	0.005092156
51	0x3c1ef0cb	0.009700964
52	0x3c25dc6f	0.010123356
53	0x3a00cae6	0.0004913047
54	0x3b784d43	0.0037887848
55	0xbc2537ca	-0.010084102
56	0xbc2205d1	-0.009889082
57	0x3c162b8f	0.009165659
58	0xbc1f390d	-0.009718192
59	0x3adca5f6	0.0016834128
60	0xbc366ce5	-0.011134361
61	0x3c0307e3	0.007997486
62	0xbc448152	-0.011993723
63	0x3c221048	0.009891577
64	0xbc74b29c	-0.014935162
65	0x3c144d23	0.009051594
66	0x3c4d9653	0.012548047
67	0xbc43681b	-0.011926676
68	0x3c39869b	0.011323596
69	0x3c31a171	0.010841713
70	0x3be59da9	0.00700732
71	0xbc171c34	-0.009223033
72	0x3b407987	0.002936931
73	0x3a86fd79	0.0010298929
74	0xbc8410ca	-0.016121287
75	0xbc57a884	-0.013162736
76	0x3c3d4075	0.011551012
77	0xbc2e27ee	-0.010629637
78	0xbc0a25f6	-0.008431902
79	0xbc19c235	-0.0093846815
80	0xbc2e69ce	-0.010645343
81	0x3be4a89e	0.0069781085
82	0xbc35e8e4	-0.011102889
83	0xbb88e6a5	-0.0041778856
84	0xbc153f4b	-0.0091093285
85	0x3c81397e	0.015774485
86	0x3c012339	0.007881933
87	0x3c0921e4	0.008369897
88	0xbbe1198d	-0.006869501
89	0xbc27b652	-0.01023634

gru1.weight_ih_l0_reverse f4 [90, 178]
0	0xbdd068b5	-0.10176221
1	0xbd98bbfc	-0.0745773
2	0x3d331087	0.043716934
3	0x3a307f60	0.00067328475
4	0xbd76c622	-0.060247548
5	0xbd9fcccc	-0.07802734
6	0x3d008239	0.03137419
7	0x3df7b3d5	0.12094847
8	0x3dd7e4bf	0.10541677
9	0x3daa2865	0.08308486
10	0x3d24728f	0.040148314
11	0xbdf3e070	-0.119080424
12	0xbdfaf97b	-0.12254616
13	0x3e0689cf	0.13138507
14	0x3da19f3b	0.07891699
15	0x3c7f2d04	0.015574697
16	0xbd2b3a6e	-0.04180377
17	0x3d36d009	0.04463199
18	0xbda363a4	-0.07977989
19	0xbd740c30	-0.059581935
20	0xbdaeb1c2	-0.08529998
21	0xbd6fa380	-0.058505535
22	0x3cabe7a5	0.02098448
23	0xbd6f0185	-0.05835106
24	0xbd885b9e	-0.066580996
25	0x3b056635	0.002035511
26	0xbe12da1b	-0.14341013
27	0x3e1a6c32	0.15080336
28	0x3b91b1e7	0.0044462564
29	0x3d48449d	0.04889356
30	0xbd03526b	-0.03206102
31	0xbde7c4b2	-0.113168135
32	0xbe0b9cee	-0.13634083
33	0x3e035883	0.12826733
34	0x3db65aa5	0.08904008
35	0x3dad3556	0.08457439
36	0xbd4116bb	-0.047140818
37	0x3e1521a8	0.1456362
38	0x3dff6f71	0.12472428
39	0xbcd3a313	-0.025834596
40	0xbdb838c4	-0.08995202
41	0xbdfebed9	-0.12438745
42	0xbd16e5f8	-0.03684041
43	0xbd00eeb9	-0.031477664
44	0x3e18d1f8	0.14923847
45	0xbdb970ac	-0.090546936
46	0xbc4a2432	-0.012337731
47	0x3e1bbbf8	0.15208423
48	0x3e1ea729	0.15493454
49	0x3e072fcf	0.13201831
50	0x3dc9158d	0.098185636
51	0xbca800ea	-0.020508248
52	0x3ddace89	0.10683925
53	0x3c7d92b1	0.0154768685
54	0x3c9b2252	0.018937264
55	0xbda417b2	-0.08012332
56	0xbb7477a8	-0.0037302766
57	0x3df46511	0.119333394
58	0xbd98411c	-0.07434294
59	0x3e19ab46	0.15006742
60	0x3d2b7e2d	0.041868377
61	0x3daabd04	0.08336833
62	0xbd97f1c5	-0.07419161
63	0x3dd5d853	0.10441651
64	0xbc82bd66	-0.015959453
65	0x3d25d27b	0.040483933
66	0x3d8f51cd	0.06998024
67	0x3dfd52fb	0.12369343
68	0xbd958b4b	-0.07301959
69	0xbdf287a1	-0.118422754
70	0x3e15ccc5	0.14628895
71	0x3d9a3b65	0.0753086
72	0x3dae9d3c	0.08526084
73	0x3c75dac8	0.015005775
74	0x3d79158b	0.06081156
75	0xbd9f6a5d	-0.07783959
76	0xbde86ec1	-0.1134925
77	0x3d7bca0b	0.06147198
78	0x3db68d63	0.08913686
79	0xbd277ef5	-0.04089256
80	0x3dd8e69b	0.105908595
81	0x3de2dd21	0.11077333
82	0xbcc98742	-0.024600629
83	0xbd596de4	-0.053083315
84	0x3db888f1	0.090104945
85	0x3d9aced6	0.07558982
86	0x3df24c32	0.11830939
87	0x3e0e8866	0.1391922
88	0x3d2bbd20	0.04192841
89	0x3e0c7147	0.13715087
90	0x3db6c42d	0.08924136
91	0x3d556d73	0.052106332
92	0xbd911fb6	-0.070861265
93	0x3dd270ba	0.10275407
94	0xbd9be909	-0.07612807
95	0xbd8775b3	-0.06614246
96	0x3d08e080	0.033417225
97	0x39b6af31	0.00034844273
98	0xbd59e136	-0.053193294
99	0xbc8330c7	-0.01601447
100	0x3df79ad0	0.12090075
101	0xbdfb4398	-0.12268752
102	0x3d037049	0.032089505
103	0x3c89b58e	0.016810205
104	0x3cc63b62	0.024198238
105	0x3cae7294	0.02129487
106	0x3db0ffca	0.08642538
107	0x3dcc892e	0.099871024
108	0xbcb616b8	-0.02222763
109	0x3deb0bdc	0.11476871
110	0x3b88dde2	0.004176841
111	0x3d3fa928	0.04679218
112	0x3d8797f7	0.06620782
113	0xbdff1d33	-0.12456741
114	0xbdf45977	-0.119311266
115	0xbd266e5c	-0.04063259
116	0x3d8bd529	0.068277664
117	0x3d560cc0	0.052258253
118	0x3d4feaae	0.050760917
119	0xbc16a521	-0.009194643
120	0x3cb69eba	0.022292484
121	0xbde2a9e4	-0.1106756
122	0x3dad43e8	0.08460218
123	0xbcd8d48d	-0.02646854
124	0x3e2b7a99	0.16745986
125	0xbba1f0bf	-0.0049420292
126	0xbdfad616	-0.12247865
127	0x3d66a394	0.056308344
128	0x3dc9f08b	0.09860333
129	0x3d759d0f	0.059964236
130	0x3d82d17d	0.06387613
131	0x3e1a88a6	0.1509119
132	0x3dcbe821	0.099563845
133	0x3e293e06	0.16527566
134	0xbdc6cd4b	-0.09707125
135	0x3e198bfe	0.14994809
136	0xbdb3231e	-0.087469324
137	0xbd71fcca	-0.05907897
138	0xbe0f44bf	-0.13991068
139	0x3dd8dec8	0.10589367
140	0xbdc45f62	-0.09588505
141	0xbd567695	-0.052359182
142	0xbd515af8	-0.051112145
143	0x3da62b87	0.08113771
144	0xbc0c81b0	-0.008575842
145	0xbbaa5c6a	-0.005199005
146	0x3d53a089	0.05166677
147	0xbd979d10	-0.07403004
148	0xbdac19bf	-0.08403348
149	0xbd8098df	-0.06279158
150	0xbd83b2f8	-0.0643062
151	0x3cfec1b4	0.031098224
152	0xbdd30782	-0.103041664
153	0x3db247ba	0.08705087
154	0x3e0f5d09	0.14000334
155	0xbb90ec70	-0.004422717
156	0xbd8480e3	-0.06469896
157	0x3c29e9ad	0.010370654
158	0xbd3d91f6	-0.046281777
159	0xbe09c99a	-0.13455811
160	0xbd93543e	-0.07193802
161	0xbdc7c888	-0.09755045
162	0x3c26ee50	0.010188654
163	0xbdc2fa1b	-0.0952036
164	0x3d040fae	0.032241516
165	0xbe0a2d1a	-0.13493767
166	0xbd837ac2	-0.064198986
167	0xbde89b35	-0.113577284
168	0x3d6e94da	0.058247425
169	0xbd963685	-0.073346175
170	0x3e18418c	0.14868754
171	0xbc076acf	-0.008265211
172	0xbd9b90b7	-0.075959615
173	0xbc8cdfcd	-0.01719656
174	0x3e0e560b	0.1390001
175	0xbdfe1078	-0.12405485
176	0xbd804b75	-0.06264392
177	0x3e09bfa5	0.13452013
178	0xbc110d5c	-0.008853283
179	0xbd1024bc	-0.035191283
180	0x3d20aa9c	0.039225206
181	0x3d95fbad	0.07323394
182	0xbd801772	-0.06254472
183	0x3e12ffcb	0.1435539
184	0x3d148e6c	0.036268637
185	0x3c5bdc34	0.0134192
186	0x3bfc5698	0.0077007525
187	0xbcd8fbd8	-0.026487276
188	0x3b562e1c	0.0032681292
189	0xbd9cac9a	-0.07650109
190	0xbcce4f48	-0.025184289
191	0xbda052ee	-0.078283176
192	0xbc401906	-0.011724716
193	0x3af00727	0.0018312678
194	0xbdb6a0cb	-0.089173876
195	0x3d9d07ec	0.076675266
196	0x3de45f03	0.111509345
197	0x3dda2bbb	0.10652872
198	0xbc278581	-0.010224701
199	0xbd78335e	-0.060595863
200	0x3df07f53	0.11743035
201	0xbde2f390	-0.11081612
202	0xbd72a0b0	-0.059235275
203	0xbd957368	-0.072974026
204	0xbe14aa4f	-0.14518093
205	0xbdc5e9f6	-0.09663765
206	0x3d9fc8fa	0.07802005
207	0x3cdabeee	0.02670237
208	0x3cf6bc1f	0.030119
209	0x3dfdf467	0.12400132
210	0xbdeb6f1f	-0.11495804
211	0xbe0b65bb	-0.13613026
212	0xbdbe4445	-0.09290365
213	0xbd049b0f	-0.032374438
214	0xbb983fd5	-0.0046462812
215	0x3c1cc07c	0.009567376
216	0xbe048bf8	-0.12944019
217	0xbdd917b3	-0.106002234
218	0xbd6bb5d9	-0.05754647
219	0x3dfcc3bc	0.12342021
220	0x3d46bb2a	0.048518337
221	0x3dee99da	0.116504386
222	0x3d8d0426	0.06885557
223	0x3e16bb13	0.147198
224	0x3dcd2ef0	0.10018718
225	0x3dbc0109	0.09179885
226	0x3de23ef8	0.110471666
227	0x3d851155	0.064974464
228	0xbda9d5a8	-0.08292705
229	0xbd29486a	-0.041328825
230	0x3e1209ef	0.14261602
231	0xbd9dc919	-0.07704372
232	0xbd1d9d35	-0.038480002
233	0x3de8bd20	0.11364198
234	0xbd337ffc	-0.043823227
235	0x3dd5ca1f	0.10438942
236	0x3dfd77e8	0.12376386
237	0xbdcd1155	-0.100130714
238	0x3de6fac8	0.112783015
239	0x3ce3a1a1	0.027787032
240	0xbd0fa0de	-0.035065524
241	0x3dc85597	0.0978195
242	0x3d461353	0.048358273
243	0x3d5772ff	0.052599903
244	0xbdba9490	-0.09110367
245	0x3d8ecc12	0.06972517
246	0x3bfd611c	0.0077325236
247	0x3d0c28b1	0.034218494
248	0x3c6efe2a	0.014586965
249	0xbd5664da	-0.052342273
250	0xbd3c6e81	-0.046003822
251	0xbcc4a8ff	-0.024006365
252	0xbddce9f2	-0.10786809
253	0x3d9082c8	0.070561945
254	0x3df7d804	0.121017486
255	0xbda6ad06	-0.0813847

gru1.weight_hh_l0_reverse f4 [90, 30]
0	0xbe5d77af	-0.21627687
1	0x3e174c20	0.14775133
2	0xbe0405a7	-0.12892781
3	0x3e0d7618	0.1381458
4	0xbda73fc3	-0.081664585
5	0x3d8de97b	0.069292985
6	0x3d7e63c6	0.06210687
7	0x3e12f6f6	0.1435202
8	0xbaa4167b	-0.0012518907
9	0xbd12f044	-0.035873666
10	0xbd82dc47	-0.06389671
11	0x3da5b4b1	0.08091105
12	0x3c40b852	0.011762695
13	0x3cc92741	0.02455485
14	0xbd635c1c	-0.055507764
15	0x3ca43f48	0.020049706
16	0xbd60bb66	-0.054866217
17	0xbe60d03e	-0.21954438
18	0xbdd69f4c	-0.10479602
19	0x3da506ba	0.080579236
20	0x3dc58596	0.0964462
21	0x3e0ccf6b	0.13750999
22	0x3d857227	0.065159135
23	0xbd00d0eb	-0.03144924
24	0xbd402f1d	-0.04691993
25	0xbd4dea20	-0.050272107
26	0x3d06d439	0.032917235
27	0xbd5ee06e	-0.05441325
28	0xbe0dcaf0	-0.13846946
29	0xbde0f70c	-0.109846205
30	0xbd29bbb2	-0.041438766
31	0xbd7b0afc	-0.061289772
32	0x3daf8c59	0.08571691
33	0x3df319d5	0.118701614
34	0x3d370963	0.044686686
35	0x3d415e90	0.047209322
36	0xbd495152	-0.04914982
37	0xbc813ad1	-0.015775116
38	0xbc82a2b6	-0.015946727
39	0xbc38e908	-0.011286028
40	0x3cf74a51	0.030186804
41	0x3e3323e7	0.17494164
42	0xbd5ad03f	-0.053421255
43	0x3d527bc2	0.051387556
44	0x3c39fc68	0.011351682
45	0xbda1c94a	-0.07899721
46	0x3de66f01	0.11251641
47	0x3e0fa856	0.14029059
48	0x3dfb6097	0.122742824
49	0xbdf126e3	-0.11774995
50	0xbdef68f8	-0.11689943
51	0xbe7674bc	-0.24067968
52	0x3dbb7834	0.09153786
53	0x3e6c6d77	0.23088633
54	0x3da4cd2e	0.080469474
55	0x3db1e142	0.08685543
56	0xbd0c114a	-0.034196176
57	0x3d7e3b4b	0.062068265
58	0xbd9e9a85	-0.07744316
59	0xbdcecb53	-0.10097375
60	0x3c364164	0.011123989
61	0x3e0d2a39	0.13785638
62	0xbd4edc37	-0.050502982
63	0xbc25d920	-0.010122567
64	0x3d873052	0.06601013
65	0x3e728409	0.2368318
66	0x3db06bcf	0.08614313
67	0x3c0d9e7b	0.008643742
68	0x3daca26b	0.08429416
69	0xbdfe2bfb	-0.12410732
70	0xbe358f84	-0.17730528
71	0x3e079992	0.13242176
72	0xbd8e77b4	-0.06956425
73	0x3daebdbe	0.08532284
74	0x3c855e28	0.016280249
75	0xbe20b25a	-0.15693036
76	0xbe3152fe	-0.17316815
77	0x3d7eddd4	0.06222327
78	0x3d9185a9	0.07105572
79	0x3d9b451c	0.07581541
80	0x3d9f3b04	0.07774928
81	0x3e270bc8	0.16313088
82	0x3d94349d	0.07236598
83	0x3db7a710	0.089674115
84	0x3ca04bf4	0.019567467
85	0x3dc78148	0.09741455
86	0xbd0b7c61	-0.034054164
87	0x3e26613d	0.16248031
88	0xbe5df3fe	-0.21675107
89	0xbd378fd1	-0.04481489
90	0xbda7919f	-0.08182072
91	0x3e3d21e8	0.18469965
92	0x3dd83c8f	0.10558426
93	0x3e077003	0.13226323
94	0xbd824e27	-0.063625626
95	0xbbc1e336	-0.005916978
96	0xbe0bae88	-0.13640797
97	0xbd73fb44	-0.059565797
98	0xbe1028a5	-0.14078005
99	0x3c995776	0.018718462
100	0x3d843c4d	0.06456814
101	0xbc8085a2	-0.015688721
102	0x3b2805a2	0.0025638123
103	0xbde55ef7	-0.11199754
104	0x3dabfba9	0.0839761
105	0x3df42289	0.119206496
106	0xbd1b0855	-0.037849743
107	0x3e214255	0.1574796
108	0xbc99e2f8	-0.018784985
109	0x3e10e192	0.14148548
110	0xbd7f7595	-0.062367994
111	0x3e7c7828	0.24655211
112	0xbe59cc6b	-0.21269386
113	0xbd4b6cc7	-0.049664285
114	0xbe1602e3	-0.14649539
115	0x3e42ffd9	0.1904291
116	0x3e1c9f39	0.15295114
117	0xbcc3d1f3	-0.023903823
118	0x3d5e611e	0.054291837
119	0xbda0f8b6	-0.07859938
120	0x3db9c5b3	0.09070911
121	0xbdb44e2f	-0.08803975
122	0x3c73d18e	0.014881505
123	0x3c3d8ea7	0.0115696555
124	0xbbc4dd1c	-0.0060078036
125	0x3d945bd4	0.07244077
126	0xbe0fd972	-0.14047793
127	0x3e7b03c5	0.24513157
128	0x3cc97e41	0.024596335
129	0xbe3982f7	-0.18116365
130	0xbe35e9db	-0.1776499
131	0xbd62a119	-0.055329416
132	0xbd7ef8a0	-0.062248826
133	0xbe18e71a	-0.14931908
134	0x3e0ffff8	0.14062488
135	0x3dcfd746	0.10148482
136	0xbcb6fbfc	-0.022336952
137	0xbe2edfb5	-0.17077525
138	0xbc64163e	-0.013921319
139	0x3d0fa186	0.03506615
140	0xbda4bf4a	-0.08044298
141	0x3d80987d	0.06279085
142	0x3e2192c5	0.15778644
143	0xbd1e1600	-0.0385952
144	0x3d98e721	0.07465959
145	0xbe480d08	-0.19536221
146	0x3e20793e	0.1567125
147	0xbdf37a63	-0.11888578
148	0xbe20f388	-0.157179
149	0xbd2d38f6	-0.04229065
150	0xbd888b7f	-0.06667232
151	0xbca3ddb5	-0.02000318
152	0x3c853141	0.016258838
153	0x3e2b9605	0.16756447
154	0xbde34512	-0.110971585
155	0xbe185fef	-0.14880346
156	0x3de6e415	0.11273972
157	0xbbe06435	-0.006847883
158	0xbdf93b7f	-0.12169551
159	0xbd59a74d	-0.053138066
160	0x3da93755	0.08262507
161	0x3d9b8661	0.0759399
162	0x3d94c25f	0.07263636
163	0x3d94ae22	0.07259776
164	0xbe2b1371	-0.16706635
165	0x3b58bf28	0.0033072922
166	0x3e585c27	0.21128903
167	0xbe0bd2b2	-0.13654593
168	0xbd7c2ee3	-0.061568152
169	0xbce3db7d	-0.027814621
170	0x39e39edf	0.00043415182
171	0xbd9a53b3	-0.075354956
172	0x3d9e84ba	0.07740159
173	0xbd74f78a	-0.059806384
174	0x3d993fd6	0.07482879
175	0xbce601e0	-0.028077066
176	0x3d2bd3ab	0.04194991
177	0x3dc619d4	0.09672895
178	0x3d8a7b67	0.067618184
179	0x3e0e226b	0.13880317
180	0x3d882420	0.06647515
181	0x3d7678b4	0.060173705
182	0x3e0f57b1	0.13998295
183	0x3d7515e9	0.05983535
184	0x3e8721a9	0.26392868
185	0x3e599391	0.21247698
186	0x3e15d508	0.14632046
187	0xbdd4111f	-0.10354828
188	0x3bd000dc	0.0063477587
189	0xbd73e02f	-0.05953997
190	0x3dcbbcaf	0.09948098
191	0xbe02d6ad	-0.12777205
192	0x3de5bd03	0.11217692
193	0xbdebc84e	-0.115128145
194	0xbb87f842	-0.0041494677
195	0x3d7c7649	0.061636243
196	0xbdd28a07	-0.10280233
197	0xbd36b45d	-0.0446056
198	0x3d5459ba	0.051843382
199	0xbe1f7c47	-0.15574752
200	0xbda2245f	-0.079170935
201	0xbddd66da	-0.10810633
202	0x3dd9e65d	0.106396414
203	0x3d74a630	0.0597288
204	0x3cdfb176	0.0273063
205	0x3dad948b	0.08475598
206	0xbd491fa7	-0.04910245
207	0x3af65d1b	0.0018796058
208	0x3ccf9f22	0.025344435
209	0x3d8739aa	0.066027954
210	0x3ca58235	0.02020369
211	0x3d893e4e	0.06701337
212	0xbe15142b	-0.14558475
213	0x3e4ce7ea	0.20010343
214	0x3e1c35d3	0.15254907
215	0x3db45cb5	0.08806745
216	0x3d2245d4	0.039617375
217	0xbc41e7a4	-0.011835013
218	0x3dde1bc6	0.10845141
219	0xbe53af89	-0.2067243
220	0xbe085e4b	-0.1331722
221	0xbd9c4e78	-0.07632154
222	0x3d7ff847	0.062492635
223	0x3e425abf	0.1897993
224	0x3e108c16	0.14115939
225	0x3de80db3	0.11330738
226	0xbd7b95db	-0.06142221
227	0xbd47e89d	-0.04880582
228	0xbdb0f6cd	-0.086408235
229	0xbe14a2b1	-0.14515187
230	0xbe4eae90	-0.20183778
231	0x3d6f8e7d	0.058485497
232	0x3c9b210f	0.018936662
233	0x3d7e36fa	0.06206415
234	0xbd4c1364	-0.04982318
235	0x3ddd2bc4	0.10799363
236	0x3d94b2a1	0.07260633
237	0x3d1e79dc	0.038690433
238	0x3e07ba76	0.13254723
239	0x3e3488dc	0.17630333
240	0x3d3d4b1d	0.04621421
241	0x3a60145e	0.0008547957
242	0x3c7b58bc	0.01534098
243	0x3de5fbe7	0.11229687
244	0x3d2e3df8	0.042539567
245	0x3dfee378	0.1244573
246	0xbd076a73	-0.033060502
247	0x3c9817d1	0.018566044
248	0x3d6daad7	0.058024254
249	0x3dc34c8d	0.09536085
250	0xbb239bdb	-0.0024964723
251	0xbdbab5b8	-0.09116691
252	0xbd86decb	-0.06585463
253	0x3e1f3d05	0.15550621
254	0x3d164bc4	0.03669335
255	0xbe756036	-0.23962483

gru1.bias_ih_l0_reverse f4 [90]
0	0x3bca9609	0.0061824364
1	0xba9743d3	-0.0011540599
2	0x3c8c7142	0.01714385
3	0xbb87e009	-0.00414658
4	0x3c703c36	0.014662793
5	0xbc04441b	-0.008072878
6	0x3c2803f4	0.010254849
7	0x3c9c3cdc	0.019071989
8	0x3b0447f9	0.00201845
9	0x3bb90358	0.0056461506
10	0x3cab6b52	0.020925198
11	0x3cc16c61	0.02361125
12	0x3c59f4ec	0.013303023
13	0x3ca82b95	0.020528594
14	0x3c444e0c	0.011981498
15	0xba71e9b9	-0.0009228248
16	0x3c66345a	0.0140505675
17	0x3c13cd51	0.009021119
18	0xbc275f72	-0.010215627
19	0x3b4d9ff7	0.0031375864
20	0xbbcaf2d9	-0.0061935005
21	0x3b8cd5ff	0.0042979713
22	0x3b92b803	0.0044775023
23	0x3c57628b	0.013146053
24	0x3c07cbba	0.008288318
25	0x3c0aa251	0.008461551
26	0x3b2ab3b9	0.0026047064
27	0x3c1e4179	0.009659165
28	0x3c4892c7	0.012242026
29	0x3a50b913	0.00079621485
30	0x3c54624f	0.012962892
31	0x3c060795	0.008180519
32	0xbc69172c	-0.014226716
33	0x39c13067	0.0003684789
34	0x3c981730	0.018565744
35	0x3d21d61a	0.039510824
36	0x3c5b4b57	0.013384662
37	0x3c8e0b32	0.017339323
38	0x3c0124e9	0.007882335
39	0x3d224324	0.03961481
40	0xbbce3d60	-0.0062939376
41	0x3c0afb9a	0.008482838
42	0xbb828d19	-0.0039841053
43	0xbbdc5558	-0.006724041
44	0xbb6de6cd	-0.0036300898
45	0x3bd005c0	0.0063483417
46	0x3c97f620	0.018549979
47	0x3b816f73	0.0039500534
48	0x3c572b14	0.013132829
49	0xbba07dc7	-0.0048978063
50	0xbc7da7e1	-0.01548192
51	0x3a1959ea	0.0005849885
52	0x3ccb2b62	0.02480096
53	0x3c0a640d	0.0084467055
54	0x39671024	0.0002203589
55	0xbbd856c1	-0.0066021387
56	0x3ab31879	0.001366391
57	0x3c5bd9a5	0.01341859
58	0xba64c753	-0.00087272114
59	0xbc122b96	-0.0089215245
60	0xbc616c82	-0.01375878
61	0x3c467f73	0.012115347
62	0x3c3fa406	0.011696821
63	0xbb64a0f8	-0.0034885984
64	0x3c2b508c	0.010456216
65	0xbc39d37f	-0.0113419285
66	0xbc43e8a9	-0.011957326
67	0x3c2cb46b	0.010541062
68	0xbba6b427	-0.005087394
69	0xbc003564	-0.007825229
70	0xbc3eb478	-0.011639707
71	0xbc469bcd	-0.012122107
72	0xbc2cef62	-0.01055512
73	0x3c3485ea	0.011018256
74	0x3c3b4f8f	0.011432542
75	0xbc483690	-0.01222004
76	0xbc013cf9	-0.007888072
77	0x3c30fdcc	0.010802697
78	0xbc3b08a6	-0.011415636
79	0xbb8477ec	-0.004042616
80	0xbc455328	-0.012043752
81	0xbaed1548	-0.0018088007
82	0x3bedf5eb	0.0072619817
83	0x3c29fbfc	0.010375019
84	0xbc169b03	-0.009192231
85	0x3bb494ce	0.005510903
86	0x3c03fcfe	0.0080559235
87	0x3c4647dc	0.012102094
88	0xbc1943c8	-0.009354539
89	0x3c1d1657	0.009587846

gru1.bias_hh_l0_reverse f4 [90]
0	0x3bca9609	0.0061824364
1	0xba9743d3	-0.0011540599
2	0x3c8c7142	0.01714385
3	0xbb87e009	-0.00414658
4	0x3c703c36	0.014662793
5	0xbc04441b	-0.008072878
6	0x3c2803f4	0.010254849
7	0x3c9c3cdc	0.019071989
8	0x3b0447f9	0.00201845
9	0x3bb90358	0.0056461506
10	0x3cab6b52	0.020925198
11	0x3cc16c61	0.02361125
12	0x3c59f4ec	0.013303023
13	0x3ca82b95	0.020528594
14	0x3c444e0c	0.011981498
15	0xba71e9b9	-0.0009228248
16	0x3c66345a	0.0140505675
17	0x3c13cd51	0.009021119
18	0xbc275f72	-0.010215627
19	0x3b4d9ff7	0.0031375864
20	0xbbcaf2d9	-0.0061935005
21	0x3b8cd5ff	0.0042979713
22	0x3b92b803	0.0044775023
23	0x3c57628b	0.013146053
24	0x3c07cbba	0.008288318
25	0x3c0aa251	0.008461551
26	0x3b2ab3b9	0.0026047064
27	0x3c1e4179	0.009659165
28	0x3c4892c7	0.012242026
29	0x3a50b913	0.00079621485
30	0x3c54624f	0.012962892
31	0x3c060795	0.008180519
32	0xbc69172c	-0.014226716
33	0x39c13067	0.0003684789
34	0x3c981730	0.018565744
35	0x3d21d61a	0.039510824
36	0x3c5b4b57	0.013384662
37	0x3c8e0b32	0.017339323
38	0x3c0124e9	0.007882335
39	0x3d224324	0.03961481
40	0xbbce3d60	-0.0062939376
41	0x3c0afb9a	0.008482838
42	0xbb828d19	-0.0039841053
43	0xbbdc5558	-0.006724041
44	0xbb6de6cd	-0.0036300898
45	0x3bd005c0	0.0063483417
46	0x3c97f620	0.018549979
47	0x3b816f73	0.0039500534
48	0x3c572b14	0.013132829
49	0xbba07dc7	-0.0048978063
50	0xbc7da7e1	-0.01548192
51	0x3a1959ea	0.0005849885
52	0x3ccb2b62	0.02480096
53	0x3c0a640d	0.0084467055
54	0x39671024	0.0002203589
55	0xbbd856c1	-0.0066021387
56	0x3ab31879	0.001366391
57	0x3c5bd9a5	0.01341859
58	0xba64c753	-0.00087272114
59	0xbc122b96	-0.0089215245
60	0xbc5af4a7	-0.013363994
61	0x3c4348d1	0.011919216
62	0x3c507f1c	0.012725618
63	0xbb66ae9c	-0.003519929
64	0x3c2ffe08	0.010741718
65	0xbc28b86f	-0.010297879
66	0xbc4379a2	-0.011930855
67	0x3c458fb3	0.012058186
68	0xbbaa4802	-0.0051965723
69	0xbc01c1b5	-0.0079197185
70	0xbc5693b7	-0.013096741
71	0xbc817680	-0.015803576
72	0xbc32acda	-0.010905469
73	0x3c5e3afa	0.013563866
74	0x3c526206	0.012840753
75	0xbc3bd8cf	-0.011465265
76	0xbc158066	-0.009124851
77	0x3c4e6a20	0.012598544
78	0xbc31e45d	-0.010857669
79	0xbb791fdf	-0.0038013381
80	0xbc37cd14	-0.011218328
81	0xbb53b314	-0.0032302784
82	0x3bebbe87	0.0071943435
83	0x3c311aed	0.010809642
84	0xbc22d105	-0.009937529
85	0x3bf7b399	0.0075592515
86	0x3c0c48c5	0.0085622715
87	0x3c53241b	0.012887026
88	0xbc23c5f0	-0.009995922
89	0x3c169b4f	0.009192302

gru2.weight_ih_l0 f4 [66, 60]
0	0x3e00183c	0.12509245
1	0xbd717042	-0.058944948
2	0xbe214af5	-0.1575125
3	0x3e1b8301	0.15186693
4	0xbe137265	-0.14399107
5	0x3e478922	0.19485906
6	0xbc569e4b	-0.013099263
7	0x3ba7a1b8	0.005115714
8	0x3df914c7	0.12162166
9	0xbb8e0f22	-0.0043353
10	0xbdff5f33	-0.1246933
11	0x3dadf49a	0.0849392
12	0xbdf1f3d0	-0.11814082
13	0xbd961517	-0.07328241
14	0x3e34ff51	0.1767552
15	0xbdda441d	-0.10657523
16	0xbe32aa4e	-0.17447779
17	0x3dd85af3	0.10564222
18	0xbe24f673	-0.16109638
19	0x3d0013b7	0.0312688
20	0xbdf6f652	-0.120587006
21	0xbe2a7565	-0.16646345
22	0xbdf132a7	-0.11777239
23	0x3dfcab88	0.123374045
24	0xbe1a13b4	-0.15046579
25	0x3d889d95	0.066706814
26	0x3d82b97d	0.06383035
27	0xbd07a877	-0.033119645
28	0x3d4727c9	0.048621926
29	0x3da3997c	0.07988259
30	0xbbc2b6e5	-0.005942213
31	0xbcf08cd2	-0.029364023
32	0x3e25629f	0.16150902
33	0x3da015e2	0.07816674
34	0x3d1b293e	0.03788113
35	0x3d627a5f	0.055292483
36	0xbde38878	-0.11110014
37	0xbd19c16a	-0.03753797
38	0x3e598324	0.21241432
39	0xbda13cb3	-0.078729056
40	0x3e09ba5d	0.13449998
41	0x3e42e046	0.19030866
42	0xbda3875d	-0.07984803
43	0x3a981c79	0.0011605165
44	0x3dd07408	0.10178381
45	0xbcc5b288	-0.024132982
46	0xbcda1791	-0.026622565
47	0x3ddb21b3	0.10699787
48	0x3de2b6c7	0.11070018
49	0xbe3766c3	-0.17910294
50	0x3daffbce	0.0859295
51	0xbd9ca136	-0.07647936
52	0xbe214f12	-0.15752819
53	0x3d9110b0	0.07083261
54	0x3e0fa86d	0.14029093
55	0x3ca529b5	0.020161489
56	0xbc60b6ca	-0.013715455
57	0x3e1553f4	0.14582807
58	0x3e00f137	0.12592016
59	0xbd1aa984	-0.03775932
60	0x3cac939e	0.021066483
61	0x3a994fe3	0.0011696782
62	0xbc3a6786	-0.011377221
63	0xbe48b0cf	-0.19598697
64	0xbe314570	-0.17311645
65	0xb9668dd2	-0.00021987341
66	0x3e521c4c	0.20518607
67	0x3acf53f5	0.0015817868
68	0x3e4405eb	0.19142883
69	0xbd95eb58	-0.07320279
70	0x3e54a5c8	0.20766366
71	0x3deb34c5	0.11484674
72	0xbe0dd119	-0.13849296
73	0x3d2c5047	0.042068746
74	0x3ddc6d9d	0.107630946
75	0x3e1fe4bb	0.15614597
76	0x3e61d8cf	0.22055362
77	0x3e2d1610	0.16902947
78	0x3c066ce4	0.0082046725
79	0x3e4a16e8	0.197353
80	0xbdcba809	-0.099441595
81	0xbe3a1b53	-0.18174486
82	0x3df7d46f	0.12101065
83	0xbc9157f7	-0.01774214
84	0xbc8d4581	-0.017245056
85	0xbd03c9f7	-0.03217503
86	0xbe1dcece	-0.15410921
87	0xbe4921a0	-0.19641733
88	0x3a3e2a85	0.00072542607
89	0xbe6dd292	-0.23224857
90	0x3df364be	0.118844494
91	0x3e12149c	0.14265674
92	0x3e3e8aa0	0.18607569
93	0x3e1c08d3	0.15237741
94	0x3d99e81e	0.07514976
95	0x3dfb8603	0.1228142
96	0xbe4a5f60	-0.19762945
97	0x3ddf1025	0.10891751
98	0xbcc35cd2	-0.023847971
99	0x3cdd3e29	0.02700718
100	0xbbc8a17b	-0.0061227656
101	0xbe5bb87c	-0.21457094
102	0x3e3fc7be	0.1872854
103	0xbe11aaf4	-0.1422537
104	0x3dad59ab	0.084643684
105	0xbd024b8b	-0.031810325
106	0x3e260fa3	0.16216902
107	0x3db8a78f	0.09016334
108	0x3b573723	0.003283926
109	0x3db8c532	0.09021987
110	0x3e04fccf	0.12987064
111	0x3dcad1b2	0.099032775
112	0x3e45ac2d	0.19303961
113	0x3e21b660	0.15792227
114	0xbdefb2da	-0.11704035
115	0x3e3b1ca6	0.18272647
116	0x3ca60b9e	0.020269211
117	0x3d24e72a	0.040259518
118	0xbd7bdb85	-0.061488647
119	0x3e69a81c	0.22818035
120	0xbe60fa26	-0.21970424
121	0x3e3dccce	0.18535158
122	0xbe72a0e1	-0.23694183
123	0xbe193468	-0.14961398
124	0x3d7df69a	0.062002756
125	0x3ad5f209	0.0016322742
126	0xbd804c03	-0.06264498
127	0x3c8ddc0b	0.017316839
128	0x3d053c3d	0.03252815
129	0xbdede449	-0.116158076
130	0x3e5283ec	0.20558137
131	0xbdd1447d	-0.10218141
132	0xbdcdd546	-0.10050444
133	0x3d0b1077	0.03395125
134	0xbe1ab048	-0.15106308
135	0x3dfc738b	0.123267256
136	0x3e263cbf	0.1623411
137	0xbe48d455	-0.19612248
138	0xbe4435d2	-0.19161156
139	0x3dc1c0c0	0.09460592
140	0xbd8d5b82	-0.06902219
141	0x3cf3a565	0.029741952
142	0xbde64f8f	-0.11245643
143	0x3bde2dd0	0.0067803636
144	0x3e2afe4d	0.1669857
145	0x3e4e261a	0.20131722
146	0x3e606515	0.2191356
147	0x3e1fa551	0.15590407
148	0xbd3aaf3d	-0.045577276
149	0xbe599e7b	-0.21251862
150	0x3de4be2f	0.11169087
151	0x3e55e996	0.20889887
152	0xbddb8432	-0.10718574
153	0x3de62ed0	0.112393975
154	0x3d47e1be	0.04879927
155	0xbe074d0c	-0.13212985
156	0x3c87e972	0.016590808
157	0x3e4b63d1	0.19862296
158	0x3d5e0692	0.054205485
159	0x3dab0fc3	0.08352616
160	0xbdad4413	-0.0846025
161	0xbd353ccf	-0.044247445
162	0x3e4a9bd0	0.19786
163	0x3dc7cb79	0.09755606
164	0xbe05480f	-0.1301577
165	0x3e489940	0.1958971
166	0x3e0ddad7	0.13853012
167	0xbe5ddb3a	-0.2166566
168	0xbe5f68db	-0.21817343
169	0xbd63a4fe	-0.05557727
170	0xbe1c7e0e	-0.15282461
171	0xbdd62477	-0.10456174
172	0x3d9a4417	0.07532518
173	0x3b18f312	0.002333824
174	0xbe35fbfc	-0.17771906
175	0x3e25a916	0.16177782
176	0xbe142604	-0.14467627
177	0xbe38af5a	-0.18035641
178	0xbd47ab1c	-0.048747167
179	0xbd5a7678	-0.053335637
180	0xbe18dc70	-0.1492784
181	0x3cb5a014	0.022171058
182	0xbd83192d	-0.06401286
183	0xbe1c8b6f	-0.15287565
184	0x3ccca0ab	0.024978956
185	0x3de62031	0.11236609
186	0xbe483099	-0.19549789
187	0x3d936bb7	0.07198279
188	0x3e62a0aa	0.22131601
189	0xbd5bdc84	-0.053677097
190	0xbdda0ce0	-0.10646987
191	0xbe43bec4	-0.1911574
192	0xbe4ebae9	-0.20188488
193	0x3e4f2d70	0.20232177
194	0xbe3b3b9d	-0.1828446
195	0xbd6cbdb3	-0.0577981
196	0x3dd1b3d4	0.102393776
197	0xbe651f47	-0.22375213
198	0x3c880b4e	0.016606953
199	0xbe0a1714	-0.13485366
200	0x3cb89286	0.022530805
201	0x3e5ff968	0.21872485
202	0x3df90a4e	0.121601686
203	0x3dfeaa7f	0.12434863
204	0x3dcd19b3	0.10014667
205	0xbe0c95c4	-0.13729006
206	0xbdb8b15a	-0.09018202
207	0xbe1adf4d	-0.15124245
208	0xbe0905b4	-0.13381082
209	0x3c176897	0.009241245
210	0x3c229e3c	0.009925421
211	0xbe34689c	-0.1761803
212	0x3d9528ff	0.0728321
213	0xbe05f19e	-0.13080451
214	0x3daaee2e	0.083462104
215	0x3d98989f	0.07450985
216	0x3e00a057	0.12561165
217	0xbe35c4b7	-0.17750822
218	0x3d6cd2c9	0.057818208
219	0xbd502335	-0.050814826
220	0x3d9c29f2	0.07625188
221	0xbc49fe25	-0.012328659
222	0xbe3ecc61	-0.18632652
223	0x3dcd09a0	0.100116014
224	0x3dc4bec6	0.096067
225	0x3e295c15	0.16539033
226	0x3cf36928	0.029713228
227	0xbc16c0e5	-0.009201263
228	0xbe1036e2	-0.14083436
229	0xbdbe1ba8	-0.09282619
230	0x3d9eab39	0.07747502
231	0xbdc4cc0c	-0.09609231
232	0x3e370319	0.17872275
233	0x3e7439eb	0.23850219
234	0xbe5b0e62	-0.21392205
235	0xbd5a8228	-0.053346783
236	0x3e3cd245	0.18439586
237	0x3e251a93	0.16123419
238	0x3cea7db1	0.028624387
239	0x3d49ed35	0.049298484
240	0x3df4cd7c	0.119532555
241	0xbd9210c1	-0.07132102
242	0xbc99dae1	-0.018781127
243	0x3d920575	0.07129947
244	0xbd17e3a8	-0.037082344
245	0x3d9b7bb9	0.075919576
246	0xbe17b5a2	-0.14815381
247	0x3c72442d	0.014786762
248	0xbdf17bd6	-0.11791198
249	0x3dab490b	0.08363541
250	0x3e54b1e4	0.20770985
251	0x3d33ddfc	0.043912873
252	0xbdbcdadf	-0.09221434
253	0x3c101869	0.008794882
254	0x3d96cfbe	0.073638424
255	0x3d0a693a	0.033791758
